1000easy-gridworld-weights.pth (torch, 37911 bytes, 6 tensors)

fc1.weight f4 [64, 2]
00000000: 86e9 f240 5a70 0841 6ae9 18aa e1dc 04aa
00000010: 86e9 f240 5a70 0841 86e9 f240 5a70 0841
00000020: 86e9 f240 5a70 0841 86e9 f240 5a70 0841
00000030: 86e9 f240 5a70 0841 86e9 f240 5a70 0841
00000040: 86e9 f240 5a70 0841 d3e4 8ca9 532a 84a9
00000050: 86e9 f240 5a70 0841 86e9 f240 5a70 0841
00000060: ce59 7daa 5428 8fa9 86e9 f240 5a70 0841
00000070: 86e9 f240 5a70 0841 d0ff 34aa 28ef d8a7
00000080: c663 a9a8 67aa 4d29 86e9 f240 5a70 0841
00000090: 5fd3 cea9 1cf8 4aaa 8e00 7daa 5ee0 2e29
000000a0: 513e e9a9 f969 c9a9 86e9 f240 5a70 0841
000000b0: 86e9 f240 5a70 0841 86e9 f240 5a70 0841
000000c0: 86e9 f240 5a70 0841 e7d8 09aa e066 84a9
000000d0: 86e9 f240 5a70 0841 86e9 f240 5a70 0841
000000e0: 86e9 f240 5a70 0841 86e9 f240 5a70 0841
000000f0: 86e9 f240 5a70 0841 c6e5 eaa9 dc4c 73aa
00000100: d82e e4a9 ac2b 1baa 86e9 f240 5a70 0841
00000110: 86e9 f240 5a70 0841 86e9 f240 5a70 0841
00000120: 86e9 f240 5a70 0841 86e9 f240 5a70 0841
00000130: 86e9 f240 5a70 0841 1a47 8ea9 788c 1629
00000140: 86e9 f240 5a70 0841 86e9 f240 5a70 0841
00000150: 86e9 f240 5a70 0841 86e9 f240 5a70 0841
00000160: 86e9 f240 5a70 0841 86e9 f240 5a70 0841
00000170: 86e9 f240 5a70 0841 86e9 f240 5a70 0841
00000180: 86e9 f240 5a70 0841 dddd 3d29 561d 52aa
00000190: 86e9 f240 5a70 0841 6c4f 4caa 7cd1 bfa9
000001a0: 2999 4ea9 2a0b 1129 86e9 f240 5a70 0841
000001b0: 86e9 f240 5a70 0841 4c96 3c29 8da5 e528
000001c0: 86e9 f240 5a70 0841 86e9 f240 5a70 0841
000001d0: 2a80 f9a8 e112 a8a9 86e9 f240 5a70 0841
000001e0: ad70 cca8 c08d f328 86e9 f240 5a70 0841
000001f0: 86e9 f240 5a70 0841 86e9 f240 5a70 0841
7.5910063 8.52743 -1.3581294e-13 -1.1800588e-13 7.5910063 8.52743 7.5910063 8.52743
7.5910063 8.52743 7.5910063 8.52743 7.5910063 8.52743 7.5910063 8.52743
7.5910063 8.52743 -6.2569436e-14 -5.8693197e-14 7.5910063 8.52743 7.5910063 8.52743
-2.2502071e-13 -6.3574715e-14 7.5910063 8.52743 7.5910063 8.52743 -1.6075964e-13 -6.0211337e-15
-1.8806039e-14 4.5666944e-14 7.5910063 8.52743 -9.184905e-14 -1.8027284e-13 -2.2471106e-13 3.883037e-14
-1.0358089e-13 -8.9445764e-14 7.5910063 8.52743 7.5910063 8.52743 7.5910063 8.52743
7.5910063 8.52743 -1.2243297e-13 -5.8798235e-14 7.5910063 8.52743 7.5910063 8.52743
7.5910063 8.52743 7.5910063 8.52743 7.5910063 8.52743 -1.0431547e-13 -2.1609402e-13
-1.013336e-13 -1.3781917e-13 7.5910063 8.52743 7.5910063 8.52743 7.5910063 8.52743
7.5910063 8.52743 7.5910063 8.52743 7.5910063 8.52743 -6.318401e-14 3.3428528e-14
7.5910063 8.52743 7.5910063 8.52743 7.5910063 8.52743 7.5910063 8.52743
7.5910063 8.52743 7.5910063 8.52743 7.5910063 8.52743 7.5910063 8.52743
7.5910063 8.52743 4.2158866e-14 -1.8661925e-13 7.5910063 8.52743 -1.8146395e-13 -8.5184437e-14
-4.5874034e-14 3.220615e-14 7.5910063 8.52743 7.5910063 8.52743 4.1874747e-14 2.5495903e-14
7.5910063 8.52743 7.5910063 8.52743 -2.7700136e-14 -7.463974e-14 7.5910063 8.52743
-2.2697415e-14 2.7039894e-14 7.5910063 8.52743 7.5910063 8.52743 7.5910063 8.52743

fc1.bias f4 [64]
00000000: 3457 ae41 5504 f4a9 3457 ae41 3457 ae41
00000010: 3457 ae41 3457 ae41 3457 ae41 3457 ae41
00000020: 3457 ae41 4125 2fa3 3457 ae41 3457 ae41
00000030: 118a 43aa 3457 ae41 3457 ae41 2d06 96a9
00000040: 6074 28aa 3457 ae41 2380 1baa 6afe 05aa
00000050: 9a0d 23aa 3457 ae41 3457 ae41 3457 ae41
00000060: 3457 ae41 de9e 21aa 3457 ae41 3457 ae41
00000070: 3457 ae41 3457 ae41 3457 ae41 cadd 93a9
00000080: 07d8 36aa 3457 ae41 3457 ae41 3457 ae41
00000090: 3457 ae41 3457 ae41 3457 ae41 c1b8 f5a9
000000a0: 3457 ae41 3457 ae41 3457 ae41 3457 ae41
000000b0: 3457 ae41 3457 ae41 3457 ae41 3457 ae41
000000c0: 3457 ae41 e2ac 7eaa 3457 ae41 a4fc 7ba6
000000d0: 604f eaa9 3457 ae41 3457 ae41 dc4d 7caa
000000e0: 3457 ae41 3457 ae41 7ae4 7daa 3457 ae41
000000f0: 75f9 b6a9 3457 ae41 3457 ae41 3457 ae41
21.79258 -1.0836528e-13 21.79258 21.79258 21.79258 21.79258 21.79258 21.79258
21.79258 -9.494658e-18 21.79258 21.79258 -1.736738e-13 21.79258 21.79258 -6.6624095e-14
-1.4961773e-13 21.79258 -1.3811222e-13 -1.190104e-13 -1.4482027e-13 21.79258 21.79258 21.79258
21.79258 -1.4354791e-13 21.79258 21.79258 21.79258 21.79258 21.79258 -6.5665857e-14
-1.6239797e-13 21.79258 21.79258 21.79258 21.79258 21.79258 21.79258 -1.0912235e-13
21.79258 21.79258 21.79258 21.79258 21.79258 21.79258 21.79258 21.79258
21.79258 -2.2619713e-13 21.79258 -8.742551e-16 -1.0405457e-13 21.79258 21.79258 -2.2409109e-13
21.79258 21.79258 -2.2550183e-13 21.79258 -8.1256975e-14 21.79258 21.79258 21.79258

fc2.weight f4 [128, 64]
00000000: 2245 34a9 395d e1a8 5e64 1327 9f98 25a9
00000010: 8470 bf28 01dc cea7 8415 47a8 32e0 0aa9
00000020: 3d99 8e28 1b58 0629 a844 3429 64fc 28a9
00000030: ce88 a7a8 4b05 19a9 67a6 22a9 0d0a cb28
00000040: fc07 27a9 07a8 22a8 acee 26a9 b355 ef27
00000050: 520d b7a8 388c 19a9 6da6 6228 5ef6 0ea9
00000060: 3933 1ca9 b8e9 81a8 1388 1a29 b3df 5028
00000070: 1180 a928 1919 dda8 1c6f 3c28 1406 7728
00000080: f500 59a8 f53c 8228 9ecc 0ca8 ea83 c828
00000090: f87b c9a7 db70 5d28 2a29 6ea8 3bc5 c8a8
000000a0: 4dea 2da9 763e b8a7 4625 2727 1514 0829
000000b0: 3c2e 1f29 89c8 0228 8ddb d028 7218 97a8
000000c0: 238a 0a29 c1e0 8228 c3b0 3c28 93df 21a8
000000d0: 98d9 2927 3bc3 21a9 878f d128 7366 0d29
000000e0: 8eb6 32a8 db41 3029 f0d7 0929 4316 4927
000000f0: 293e 93a8 1fc3 21a9 c6ea 36a8 d83a 48a8
00000100: 3457 ae41 4467 3429 3457 ae41 3457 ae41
00000110: 3457 ae41 3457 ae41 3457 ae41 3457 ae41
00000120: 3457 ae41 0009 a7a8 3457 ae41 3457 ae41
00000130: 527c 09a8 3457 ae41 3457 ae41 19c2 57a8
00000140: 8a4b d6a6 3457 ae41 26c6 a128 0c8e 2b29
00000150: 1d90 0c29 3457 ae41 3457 ae41 3457 ae41
00000160: 3457 ae41 f7d3 1c29 3457 ae41 3457 ae41
00000170: 3457 ae41 3457 ae41 3457 ae41 1ec0 f728
00000180: 523d 2329 3457 ae41 3457 ae41 3457 ae41
00000190: 3457 ae41 3457 ae41 3457 ae41 bb1c 5929
000001a0: 3457 ae41 3457 ae41 3457 ae41 3457 ae41
000001b0: 3457 ae41 3457 ae41 3457 ae41 3457 ae41
000001c0: 3457 ae41 45ea 4da8 3457 ae41 76a2 8227
000001d0: cf46 83a8 3457 ae41 3457 ae41 4878 ada8
000001e0: 3457 ae41 3457 ae41 4924 1529 3457 ae41
000001f0: 134d c128 3457 ae41 3457 ae41 3457 ae41
00000200: 8183 5327 a20f eba7 40c2 98a9 7001 13a9
00000210: b78e d6a7 92ef 1229 d63d 8429 1ebd dc28
00000220: bd2e aca8 6b1f c528 662c 0c29 1f70 9128
00000230: d840 3029 08b2 81a9 5648 6228 6436 ec28
00000240: 77a1 66a9 81af 1b28 f6dc 1aa9 7ee5 b6a8
00000250: 61bf 2c29 123b 3fa9 c62c bda9 fd5a 3328
00000260: 9ef8 3d27 b0c0 5a28 ca71 d5a9 537c b128
00000270: deaa 71a7 653b 93a9 f3ff 01aa bf26 cba8
00000280: 8119 3ea7 8947 2aa9 a3da 1328 9908 69a9
00000290: 00b0 f928 710a 8929 e47e 7d28 035a 3129
000002a0: e3a6 6d29 dc1e 3aa9 9e82 8a29 1584 5f29
000002b0: e58b 4e29 ed92 5f29 9bd9 9326 fa09 9ea8
000002c0: 7fd7 23a9 7bd5 2829 340f 23aa e9ff 13a7
000002d0: aa45 6aa9 2d34 89a8 06b9 0ca9 cfd7 b8a8
000002e0: cf60 1b29 34f4 c7a8 f43d 2427 59fe 6ea9
000002f0: 17f8 5328 de1b a928 e863 91a8 26c5 6aa9
00000300: 3457 ae41 b922 0e28 3457 ae41 3457 ae41
00000310: 3457 ae41 3457 ae41 3457 ae41 3457 ae41
00000320: 3457 ae41 261a d4a8 3457 ae41 3457 ae41
00000330: ecfb 2a25 3457 ae41 3457 ae41 3063 36a8
00000340: 54a3 76a9 3457 ae41 b406 2b29 1cd5 3b27
00000350: 32fc e928 3457 ae41 3457 ae41 3457 ae41
00000360: 3457 ae41 a5e2 d428 3457 ae41 3457 ae41
00000370: 3457 ae41 3457 ae41 3457 ae41 af7b cd28
00000380: e7c3 0f28 3457 ae41 3457 ae41 3457 ae41
00000390: 3457 ae41 3457 ae41 3457 ae41 5a8f 83a8
000003a0: 3457 ae41 3457 ae41 3457 ae41 3457 ae41
000003b0: 3457 ae41 3457 ae41 3457 ae41 3457 ae41
000003c0: 3457 ae41 a043 b928 3457 ae41 28f6 d428
000003d0: 17b8 e5a8 3457 ae41 3457 ae41 0534 a928
000003e0: 3457 ae41 3457 ae41 0d11 1a29 3457 ae41
000003f0: c164 8528 3457 ae41 3457 ae41 3457 ae41
-4.0027992e-14 -2.5020447e-14 2.0454757e-15 -3.6769738e-14 2.1254056e-14 -5.7415014e-15 -1.10513846e-14 -3.0836614e-14
1.5831623e-14 2.9830396e-14 4.002758e-14 -3.7522408e-14 -1.8600054e-14 -3.3977415e-14 -3.6115557e-14 2.2541886e-14
-3.7088374e-14 -9.029242e-15 -3.706642e-14 6.642874e-15 -2.0322858e-14 -3.4094445e-14 1.2581608e-14 -3.1744023e-14
-3.4683387e-14 -1.4423236e-14 3.4312895e-14 1.15948265e-14 1.8818309e-14 -2.4546813e-14 1.04601894e-14 1.3712572e-14
-1.2046127e-14 1.4459335e-14 -7.8159305e-15 2.2261669e-14 -5.5923114e-15 1.2292436e-14 -1.322058e-14 -2.2289996e-14
-3.861694e-14 -5.113798e-15 2.3196112e-15 3.0215485e-14 3.5345194e-14 7.259934e-15 2.3187854e-14 -1.6774969e-14
3.076197e-14 1.453037e-14 1.04744255e-14 -8.985775e-15 2.357142e-15 -3.5918517e-14 2.3265906e-14 3.139715e-14
-9.92057e-15 3.913697e-14 3.0607407e-14 2.7906422e-15 -1.6347236e-14 -3.5918422e-14 -1.0153938e-14 -1.111499e-14
21.79258 4.0057598e-14 21.79258 21.79258 21.79258 21.79258 21.79258 21.79258
21.79258 -1.8544628e-14 21.79258 21.79258 -7.631985e-15 21.79258 21.79258 -1.1976986e-14
-1.4869708e-15 21.79258 1.7960524e-14 3.8092833e-14 3.1211243e-14 21.79258 21.79258 21.79258
21.79258 3.482281e-14 21.79258 21.79258 21.79258 21.79258 21.79258 2.7505826e-14
3.6246457e-14 21.79258 21.79258 21.79258 21.79258 21.79258 21.79258 4.82086e-14
21.79258 21.79258 21.79258 21.79258 21.79258 21.79258 21.79258 21.79258
21.79258 -1.1430585e-14 21.79258 3.625839e-15 -1.457463e-14 21.79258 21.79258 -1.9259022e-14
21.79258 21.79258 3.311612e-14 21.79258 2.146073e-14 21.79258 21.79258 21.79258
2.935342e-15 -6.524255e-15 -6.783853e-14 -3.2641804e-14 -5.9551664e-15 3.2626306e-14 5.8727044e-14 2.4506923e-14
-1.9116106e-14 2.1885019e-14 3.1124754e-14 1.6146859e-14 3.9136093e-14 -5.759634e-14 1.25612055e-14 2.6224852e-14
-5.1210308e-14 8.642285e-15 -3.4386522e-14 -2.0305585e-14 3.8357667e-14 -4.2461755e-14 -8.401053e-14 9.956226e-15
2.6363795e-15 1.2143213e-14 -9.4788394e-14 1.9704865e-14 -3.3538096e-15 -6.538415e-14 -1.1546302e-13 -2.255433e-14
-2.6381623e-15 -3.780963e-14 8.2075485e-15 -5.174385e-14 2.7720881e-14 6.0858335e-14 1.4071836e-14 3.9379968e-14
5.2769323e-14 -4.1327063e-14 6.1510896e-14 4.963051e-14 4.5862528e-14 4.9643385e-14 1.0259156e-15 -1.754585e-14
-3.6380184e-14 3.748866e-14 -1.4482583e-13 -2.0539077e-15 -5.201886e-14 -1.5232683e-14 -3.1246727e-14 -2.0521696e-14
3.4500882e-14 -2.2199344e-14 2.2793157e-15 -5.3067227e-14 1.1766649e-14 1.8774855e-14 -1.6141561e-14 -5.2129437e-14
21.79258 7.890113e-15 21.79258 21.79258 21.79258 21.79258 21.79258 21.79258
21.79258 -2.3548068e-14 21.79258 21.79258 1.4830504e-16 21.79258 21.79258 -1.0124537e-14
-5.4764637e-14 21.79258 3.797544e-14 2.606699e-15 2.5977569e-14 21.79258 21.79258 21.79258
21.79258 2.363502e-14 21.79258 21.79258 21.79258 21.79258 21.79258 2.2813211e-14
7.980574e-15 21.79258 21.79258 21.79258 21.79258 21.79258 21.79258 -1.460609e-14
21.79258 21.79258 21.79258 21.79258 21.79258 21.79258 21.79258 21.79258
21.79258 2.0568454e-14 21.79258 2.3643481e-14 -2.5503944e-14 21.79258 21.79258 1.8785329e-14
21.79258 21.79258 3.420966e-14 21.79258 1.4809661e-14 21.79258 21.79258 21.79258

fc2.bias f4 [128]
00000000: 42b6 c028 3457 ae41 a232 c728 3457 ae41
00000010: 3457 ae41 3457 ae41 3457 ae41 3b71 cfa6
00000020: 65fb 2ba8 f247 1929 556e 39a9 3457 ae41
00000030: 3457 ae41 3ce1 0529 5655 0fa9 6d49 cea8
00000040: 9212 5b29 69d7 b628 cf8c 3428 5e82 1829
00000050: 369f 4d28 528b faa8 7490 59a8 fa65 3229
00000060: 90d7 d6a8 00bf 0ca9 4c0c d528 a167 02a9
00000070: 3d44 1129 c40c 9728 42b6 58a8 7eb7 3ca9
00000080: f524 78a7 886d b5a7 03f0 2ca9 aca2 8b28
00000090: 75f5 2ba8 3457 ae41 8ade e128 dc9d 0828
000000a0: ccda f6a7 3457 ae41 3457 ae41 24e6 8028
000000b0: 3457 ae41 582b 4ea9 7744 1ea9 e33e 3b28
000000c0: 8cd0 8d27 6610 c826 857b 44a8 9c4c dd28
000000d0: 85b8 1029 35b0 0929 e942 1129 3457 ae41
000000e0: 85a0 56a7 ad65 4028 75ee 0a25 ba72 f528
000000f0: 6404 2da8 a9f3 1c29 5c15 78a9 e800 a4a7
00000100: 3457 ae41 bb9d 83a8 00fa 1829 5db4 2ca9
00000110: ccdd 13a9 768d e3a8 3457 ae41 1d9c 1429
00000120: 2b41 20a9 3457 ae41 e10e 07a9 083c ada8
00000130: f38e d3a8 782a 42a8 f177 1d28 3457 ae41
00000140: 3457 ae41 9640 4128 c5de 8028 3571 13a9
00000150: bba9 cd27 0788 4ea8 3457 ae41 11b3 8aa8
00000160: bb55 f0a8 3457 ae41 3457 ae41 d084 93a8
00000170: 3457 ae41 f985 8b28 bab6 eb28 6089 25a9
00000180: 6165 38a9 3457 ae41 178b 3b27 06f5 83a8
00000190: 1731 8427 36ed fe28 9188 2427 88a2 00a9
000001a0: 5d02 25a9 2ed8 e8a8 4018 5e28 4017 09a9
000001b0: 3457 ae41 b7d3 0327 c2f0 38a9 8ad1 c5a8
000001c0: 6cdc 1929 33a5 aba8 d27b 54a8 3457 ae41
000001d0: 3457 ae41 a510 2da9 3457 ae41 338f 9428
000001e0: 8a03 ba28 762e 11a9 3457 ae41 3457 ae41
000001f0: 4aab 7528 2344 a426 45a0 2d29 aed8 d228
2.1395324e-14 21.79258 2.2115397e-14 21.79258 21.79258 21.79258 21.79258 -1.4394202e-15
-9.546919e-15 3.4035227e-14 -4.117395e-14 21.79258 21.79258 2.9727292e-14 -3.1826396e-14 -2.2902438e-14
4.8643876e-14 2.0299478e-14 1.002254e-14 3.3863855e-14 1.1414309e-14 -2.7815996e-14 -1.2077243e-14 3.961239e-14
-2.3852258e-14 -3.125191e-14 2.3653083e-14 -2.8955682e-14 3.2255655e-14 1.6769904e-14 -1.20299295e-14 -4.190354e-14
-3.4436948e-15 -5.0356346e-15 -3.839985e-14 1.5502648e-14 -9.545632e-15 21.79258 2.5076529e-14 7.583747e-15
-6.8515936e-15 21.79258 21.79258 1.4310662e-14 21.79258 -4.5778783e-14 -3.514243e-14 1.0394222e-14
3.936147e-15 1.3882233e-15 -1.090697e-14 2.4569153e-14 3.2134468e-14 3.0572946e-14 3.2254503e-14 21.79258
-2.9785484e-15 1.06801885e-14 1.2050384e-16 2.7250219e-14 -9.604381e-15 3.48503e-14 -5.508559e-14 -4.5520127e-15
21.79258 -1.4612326e-14 3.396762e-14 -3.8348112e-14 -3.2832935e-14 -2.5263412e-14 21.79258 3.2998008e-14
-3.558366e-14 21.79258 -2.9988927e-14 -1.9232893e-14 -2.34877e-14 -1.0778372e-14 8.741259e-15 21.79258
21.79258 1.0727657e-14 1.4307466e-14 -3.273875e-14 5.7082952e-15 -1.1464793e-14 21.79258 -1.5398735e-14
-2.6682532e-14 21.79258 21.79258 -1.6377877e-14 21.79258 1.5490201e-14 2.6169486e-14 -3.6756514e-14
-4.094414e-14 21.79258 2.6026864e-15 -1.4650184e-14 3.6690583e-15 2.8302539e-14 2.2833605e-15 -2.8562683e-14
-3.663941e-14 -2.5850927e-14 1.2328734e-14 -3.0440277e-14 21.79258 1.8294673e-15 -4.106503e-14 -2.1962267e-14
3.416401e-14 -1.9056457e-14 -1.1795213e-14 21.79258 21.79258 -3.8428153e-14 21.79258 1.6493404e-14
2.0651683e-14 -3.2236766e-14 21.79258 21.79258 1.36373744e-14 1.1398254e-15 3.855273e-14 2.3408653e-14

fc3.weight f4 [4, 128]
00000000: b21c 43a8 f465 2e41 20c1 2c28 f465 2e41
00000010: f465 2e41 f465 2e41 f465 2e41 a62b 9928
00000020: 1361 61a9 a4ce a228 b7b6 14a8 f465 2e41
00000030: f465 2e41 d88c e1a8 addd 0fa9 cd1e e4a8
00000040: 9a95 a6a8 5467 6da8 2807 3928 6145 c3a8
00000050: 9947 aa28 c39b 4aa7 0143 5ea8 fbf1 fea7
00000060: 3d33 73a9 82ad 7ea7 e0eb fd28 7553 2128
00000070: 5e47 a4a7 1f58 bba8 5489 35a8 8f2c 4ba9
00000080: cb72 99a7 8eaa e0a8 acd9 0ca9 7c09 7da8
00000090: 868d 9b28 f465 2e41 f3d6 5fa7 cd84 2aa9
000000a0: 8ae7 06a8 f465 2e41 f465 2e41 037e 33a9
000000b0: f465 2e41 8c0c b9a8 135c 0da7 7874 0fa9
000000c0: 9ab1 f927 99d0 a8a4 25dd 7a28 1e19 c628
000000d0: 6518 e228 11e5 daa7 bc0b 6428 f465 2e41
000000e0: f0a3 2aa9 91a2 f228 471c 96a8 7e00 df28
000000f0: 3260 5e28 aafe 9ca9 9a03 eba8 08b0 81a8
00000100: f465 2e41 804c 3e28 0c4e cea8 334c cca8
00000110: 1378 0d28 eaeb 85a8 f465 2e41 6a6d e9a8
00000120: d960 69a8 f465 2e41 3988 85a8 3915 3e28
00000130: 4d8c b1a7 1587 86a8 4a8c 80a9 f465 2e41
00000140: f465 2e41 82db 3ba9 2e0d 8ca8 5786 ed28
00000150: d7b1 9328 69bb e727 f465 2e41 8d52 9828
00000160: a455 e528 f465 2e41 f465 2e41 338d 8fa9
00000170: f465 2e41 cbaa 65a6 a218 6a28 a4e9 8e28
00000180: 3117 6527 f465 2e41 5d8a 0528 cf51 5fa9
00000190: 9b89 04a8 d459 b6a9 9e0b 85a8 9cdf 18a8
000001a0: 2fbf 6ba8 c7dd 7227 f464 8ca7 f052 da28
000001b0: f465 2e41 4719 8a27 f16c 7aa7 089f caa6
000001c0: 3fd7 a5a8 6047 8628 b03c 35a9 f465 2e41
000001d0: f465 2e41 5710 8528 f465 2e41 aafd 95a8
000001e0: 5619 a8a7 a811 43a8 f465 2e41 f465 2e41
000001f0: ef13 81a8 f08c 79a7 3040 95a9 9b4c bba8
00000200: 0bc9 52a8 5f0a 8e3b 232e 41a9 5f0a 8e3b
00000210: 5f0a 8e3b 5f0a 8e3b 5f0a 8e3b 3106 cc28
00000220: 1a50 18a7 b1e0 f427 33b0 d428 5f0a 8e3b
00000230: 5f0a 8e3b 395e 00a8 3ba4 04a8 9266 43a8
00000240: 26b9 0ea9 916b e7a8 401e eca8 d783 15a9
00000250: cb2a 9aa7 0436 67a8 2891 ef28 abd4 a7a7
00000260: 4929 0ca8 7e98 89a6 3212 2aa9 e48f c6a8
00000270: ced0 f328 1016 96a8 9817 ffa8 703e c6a8
00000280: 61a1 ada7 56eb b2a8 24fd 1528 352c 1aa9
00000290: 884f 2b28 5f0a 8e3b d6e1 eb28 ea4f f6a8
000002a0: 948c 9228 5f0a 8e3b 5f0a 8e3b d680 92a8
000002b0: 5f0a 8e3b 9316 28a8 442c 57a8 09ef 25a9
000002c0: eb6e 8fa7 d1f0 d428 62d1 11a8 71c4 b7a8
000002d0: 3af8 f0a8 7827 bea7 3e42 27a9 5f0a 8e3b
000002e0: f651 bea8 0848 7428 1f0f 6ca8 a0d6 f2a8
000002f0: 5051 a4a7 e59c 9fa8 a871 49a9 89a7 9b27
00000300: 5f0a 8e3b 2f12 1828 ca0f 9128 1267 a028
00000310: 3b8d 99a7 d58d ed28 5f0a 8e3b cd28 07a8
00000320: 6e69 a3a8 5f0a 8e3b c2d9 2927 8a85 64a8
00000330: 58b3 27a8 fe16 e028 6401 02a9 5f0a 8e3b
00000340: 5f0a 8e3b 2529 ab27 45fa 6fa7 c9da e527
00000350: e424 3ca8 8558 d5a8 5f0a 8e3b 9847 e328
00000360: 78d6 cd28 5f0a 8e3b 5f0a 8e3b 5bc6 dba8
00000370: 5f0a 8e3b a823 3da9 c4a1 cd28 0f4b b1a8
00000380: 7f6c cfa7 5f0a 8e3b da63 8528 fbd7 8728
00000390: 69b7 bea8 d87a 4627 7673 93a8 c412 f7a8
000003a0: 687f f128 de6e d9a8 4b41 e0a7 155a 80a8
000003b0: 5f0a 8e3b eccf bda8 6dc5 e928 f147 f828
000003c0: ebea 67a7 81af c128 1b5c 0ea8 5f0a 8e3b
000003d0: 5f0a 8e3b 66a7 07a9 5f0a 8e3b dca2 03a8
000003e0: 34b0 0927 86f8 eb28 5f0a 8e3b 5f0a 8e3b
000003f0: aabd 8ca8 80e6 8e27 c2c9 9526 fdc6 41a9
-1.0830897e-14 10.899891 9.589795e-15 10.899891 10.899891 10.899891 10.899891 1.7005342e-14
-5.0044235e-14 1.8075229e-14 -8.25527e-15 10.899891 10.899891 -2.50411e-14 -3.194465e-14 -2.5326443e-14
-1.8494582e-14 -1.31785486e-14 1.0271115e-14 -2.1679437e-14 1.8904842e-14 -2.811757e-15 -1.2338005e-14 -7.0761518e-15
-5.400128e-14 -3.534364e-15 2.8190937e-14 8.955392e-15 -4.559652e-15 -2.0799387e-14 -1.0077297e-14 -4.5113703e-14
-4.259049e-15 -2.4942962e-14 -3.1275045e-14 -1.4046378e-14 1.7269833e-14 10.899891 -3.106399e-15 -3.786277e-14
-7.488701e-15 10.899891 10.899891 -3.9855282e-14 10.899891 -2.0544567e-14 -1.9617594e-15 -3.18534e-14
6.930394e-15 -7.3211764e-17 1.3925741e-14 2.1993309e-14 2.510162e-14 -6.075551e-15 1.2659087e-14 10.899891
-3.7889776e-14 2.6937899e-14 -1.6665609e-14 2.4758187e-14 1.2344335e-14 -6.971969e-14 -2.6091803e-14 -1.4398218e-14
10.899891 1.0563707e-14 -2.2904442e-14 -2.2681596e-14 7.853109e-15 -1.4868278e-14 10.899891 -2.5915647e-14
-1.2955099e-14 10.899891 -1.4825043e-14 1.0551721e-14 -4.9279483e-15 -1.4935571e-14 -5.708678e-14 10.899891
10.899891 -4.1712734e-14 -1.5548838e-14 2.6370546e-14 1.6397404e-14 6.431857e-15 10.899891 1.691119e-14
2.5461248e-14 10.899891 10.899891 -6.37497e-14 10.899891 -7.9681803e-16 1.2994951e-14 1.5866492e-14
3.1792706e-15 10.899891 7.412986e-15 -4.9586905e-14 -7.35731e-15 -8.098006e-14 -1.4771004e-14 -8.4861825e-15
-1.3086577e-14 3.3704472e-15 -3.896726e-15 2.423883e-14 10.899891 3.83301e-15 -3.4753527e-15 -1.4059671e-15
-1.8412028e-14 1.4907943e-14 -4.024271e-14 10.899891 10.899891 1.4773053e-14 10.899891 -1.6652332e-14
-4.6656836e-15 -1.0828503e-14 10.899891 10.899891 -1.4330522e-14 -3.4632094e-15 -6.628064e-14 -2.0794393e-14
-1.1700936e-14 0.0043347324 -4.2894626e-14 0.0043347324 0.0043347324 0.0043347324 0.0043347324 2.2651235e-14
-2.113766e-15 6.7967215e-15 2.3613142e-14 0.0043347324 0.0043347324 -7.125859e-15 -7.363084e-15 -1.0846916e-14
-3.1690925e-14 -2.5692801e-14 -2.6214382e-14 -3.3199e-14 -4.2789983e-15 -1.2834789e-14 2.6597282e-14 -4.6582386e-15
-7.7805135e-15 -9.547618e-16 -3.7763365e-14 -2.2044818e-14 2.7068974e-14 -1.6662913e-14 -2.832092e-14 -2.2009494e-14
-4.8192113e-15 -1.986403e-14 8.326053e-15 -3.4233213e-14 9.5096525e-15 0.0043347324 2.6188182e-14 -2.7346144e-14
1.6270222e-14 0.0043347324 0.0043347324 -1.626513e-14 0.0043347324 -9.330768e-15 -1.1944496e-14 -3.684469e-14
-3.981073e-15 2.3641166e-14 -8.09452e-15 -2.0402274e-14 -2.6753004e-14 -5.2778386e-15 -3.7138905e-14 0.0043347324
-2.1129782e-14 1.356034e-14 -1.31039106e-14 -2.6960476e-14 -4.5607303e-15 -1.7720588e-14 -4.4729547e-14 4.3202784e-15
0.0043347324 8.441638e-15 1.6105081e-14 1.7808268e-14 -4.2619153e-15 2.6373796e-14 0.0043347324 -7.502853e-15
-1.8142358e-14 0.0043347324 2.3571508e-15 -1.2685499e-14 -9.309251e-15 2.4878967e-14 -2.8867005e-14 0.0043347324
0.0043347324 4.7506643e-15 -3.3303584e-15 6.3797476e-15 -1.0444096e-14 -2.368614e-14 0.0043347324 2.5233111e-14
2.2852583e-14 0.0043347324 0.0043347324 -2.4399907e-14 0.0043347324 -4.1997357e-14 2.2829727e-14 -1.9683499e-14
-5.7571673e-15 0.0043347324 1.480927e-14 1.5081677e-14 -2.1173779e-14 2.7544614e-15 -1.6370352e-14 -2.7430647e-14
2.6811629e-14 -2.413992e-14 -6.224328e-15 -1.4249922e-14 0.0043347324 -2.1073387e-14 2.5953816e-14 2.756473e-14
-3.218504e-15 2.1503417e-14 -7.902556e-15 0.0043347324 0.0043347324 -3.0121217e-14 0.0043347324 -7.307275e-15
1.910809e-15 2.6198021e-14 0.0043347324 0.0043347324 -1.5625376e-14 3.9662826e-15 1.0393638e-15 -4.3027204e-14

fc3.bias f4 [4]
00000000: f365 2e41 5f0a 8e3b 5b36 2e41 e608 3538
10.89989 0.0043347324 10.88827 4.316205e-05
