best-cartpole-weights.pth (torch, 548119 bytes, 6 tensors)

fc1.weight f4 [1024, 4]
00000000: 6f70 28be 2977 f33e 308d 23be 40b9 1fbc
00000010: e60e a43e aebd debd 5a67 f1be bde8 623e
00000020: 812a da3e 4d3f 80be 5e9d eabe 661f 883c
00000030: ca68 d4bd c0ed fabe 6445 ffbe 817c cebe
00000040: f96f 1ebe 9cf8 b1bd c526 f53e 711a 893e
00000050: 7348 ffbe 4d93 4e3d ffaa d1be 7412 013e
00000060: fbb7 55bd 9319 ebbe d501 f53d d43d 26bc
00000070: b29e 513e 3923 2fbe d15c e13e ba2f b0bd
00000080: 7d8b d43e 29bf 343e 88f7 ddbe 2aaf c1be
00000090: a298 463e ae30 fa3e 4993 99be aecd 543e
000000a0: db33 023d 78b5 f13e 86b5 8fbe 1307 b2bc
000000b0: 7c50 013e 406a 62be 00d0 fab9 e059 68be
000000c0: 8e28 a53e cfb7 863d 44d3 0ebd bae4 3c3e
000000d0: d8f0 e83e b4f3 9f3e 6175 153e 03af 4c3d
000000e0: 1fb1 0d3e 3293 09be 6d96 d3be 5aa8 983d
000000f0: b9e0 dfbe bb26 733e d49e ccbe 7270 fcbd
00000100: 343b 2abe 0ebe 9abe 36a5 813e 8ddd a93e
00000110: 9399 5abe 6ead a53e d72d f13e e2d5 39be
00000120: f5d3 e33e 08ff 203e f5d5 2e3d 0976 ab3e
00000130: 4651 c8be 1302 123e d5e2 7e3e 2b51 05bb
00000140: 3691 adbe dc1c fbbd 6cc8 edbe 9176 4b3e
00000150: 8550 c03e 808a f2be a24c da3e 892b b0be
00000160: 30db b43e 23b1 cebd 2a5a aebd 27bd ee3d
00000170: 4ba4 e0be fd6f cd3d b2be 9d3e 1508 40be
00000180: f067 ce3c a6d4 11be 3a3e a0be a3b6 d0be
00000190: 9bdd 533e 1753 c7bd 5527 c13e d5a3 f6be
000001a0: 09e8 633d e7d6 fdbe 62f3 ce3e d8e6 c2be
000001b0: fc05 aabd 164f 15be 9207 043e 98d8 73be
000001c0: aba7 57bb abfa fcbe d39b 2a3e dfbb 043d
000001d0: 1514 f9bd 1044 41be 32fe d2be 5c8f b4bc
000001e0: 9c4f c33e bdec acbe 5cdc d63e 1ead 84bd
000001f0: 0f70 acbe 10e7 ed3e a1e3 ba3e c02c c3bd
00000200: 42f4 0e3c d12f f63e c0c6 4e3d f961 6b3e
00000210: cf17 3f3e 906c 5e3d b173 b8be 6ba9 d03e
00000220: dace 19be 60be 9e3e a33e a73c 8a72 f9bd
00000230: 01f0 8bbe c70b ebbe 55f0 99bc d5f1 df3e
00000240: 0d03 34be b183 e7be e75d e6bd 844c 58be
00000250: 2876 b4bd 28ff a6be 6e60 663e 5f64 8e3e
00000260: 8eca cf3d 92b7 c7be aabe 8d3e cb6a f13e
00000270: d915 7a3d 5d24 1abe adba f9bd b50c d0be
00000280: 82c6 cdbe 36cd bfbe 88f7 5bbe 971a 67be
00000290: 7fb9 a13d 9d29 7cbd 550a 803e 8ec2 5b3e
000002a0: 4757 de3e 349c f23e 34ab d1be c7b4 d33e
000002b0: db92 9c3e 9ac2 c73c 192d 6abe ee8a bc3e
000002c0: ffa7 aa3d 3400 84be 8b7a 8b3d 75c6 363e
000002d0: d41f cd3e d987 4c3e 6d64 0d3d 1970 d4be
000002e0: 709a 4f3e fbaf 333e 0312 20be e555 e93d
000002f0: ba6d f7be 21f8 b93d 8a85 cebe ba64 3ebe
00000300: 9c8e a0be bd32 cabe 59c3 793c 1ede 453e
00000310: 8253 7ebe b402 893d 2971 f4be 9487 ba3e
00000320: 4764 32be a969 7fbe ef79 f2bd e2ad a7bd
00000330: 1654 dabd 94da 4fbc 816c ffbe a706 f83e
00000340: c3e4 4abe a814 c83e 29a0 2f3d 241d df3e
00000350: 3f4c a83c 5e91 dd3d 1dd4 b43e d678 a53b
00000360: 9041 b53e 086f c33e ee42 8fbd 5f6b a13e
00000370: 4f18 863e 001c a53e 2dad 9c3e 73ea ef3e
00000380: 2e88 a93e 6c1a 07be 1172 a93d 7fec 653e
00000390: f28a 7dbe 9e55 babd 5fba 813e 2c11 b3be
000003a0: 772c d5bd 7a1b 413e d208 c03e 2158 fcbe
000003b0: 5c7d 24bd 531c 903e 6bc2 b1bd faee d73e
000003c0: 1848 84bc 6a1e 363e 783c 09be ce83 9b3e
000003d0: fd7c e43e 62a0 ab3e d835 bcbd 4ba3 b8bd
000003e0: 8a4d f93d 7930 c13e 7907 c3be 6083 cebe
000003f0: bf60 44be 549f 7e3e 7afb c53d 08d0 323e
-0.1644914 0.4755185 -0.15971828 -0.009748757 0.32042617 -0.10876022 -0.47149163 0.22159095
0.42610553 -0.25048295 -0.45823187 0.016616534 -0.103715494 -0.49009514 -0.49857628 -0.40329364
-0.15472402 -0.086899966 0.4788114 0.26777986 -0.49859962 0.050433446 -0.40950772 0.12604696
-0.05217741 -0.4591795 0.1196324 -0.010146577 0.20470694 -0.1710328 0.44016126 -0.08602853
0.4151267 0.17651047 -0.43352914 -0.37828952 0.19394162 0.48865265 -0.29995182 0.20781586
0.031787734 0.47208762 -0.2806818 -0.021731889 0.12628359 -0.22110844 -0.00047838688 -0.22690535
0.32257503 0.065780275 -0.034869447 0.18446627 0.4549625 0.31240618 0.14595558 0.04997159
0.13837098 -0.13435057 -0.41325703 0.074539855 -0.43726137 0.23745243 -0.39964926 -0.12326135
-0.16624147 -0.30223125 0.25321358 0.33176842 -0.21347646 0.3235888 0.47105286 -0.18147996
0.44497648 0.15722287 0.042684514 0.3348849 -0.39124507 0.14258604 0.24891217 -0.002034257
-0.3389985 -0.12261364 -0.46441972 0.19869448 0.37561432 -0.47371292 0.4263659 -0.34408215
0.35323477 -0.1009238 -0.08513291 0.11657172 -0.43875346 0.10031126 0.3080955 -0.18753083
0.025196046 -0.14241275 -0.31297475 -0.4076434 0.20690005 -0.09732645 0.3772532 -0.4817187
0.055641208 -0.4957802 0.4042006 -0.38066745 -0.08301923 -0.1458095 0.12893513 -0.23813093
-0.0032906334 -0.49409994 0.16661005 0.03240573 -0.121620335 -0.1887362 -0.4120956 -0.022041015
0.38146675 -0.33774367 0.41964996 -0.06478332 -0.33679244 0.4646535 0.36501792 -0.0953002
0.008725228 0.48083356 0.05048251 0.22986592 0.18661426 0.054302752 -0.36025766 0.40754256
-0.15020314 0.3100462 0.02041561 -0.1218005 -0.27331546 -0.45907423 -0.018791357 0.4373919
-0.17579289 -0.4521766 -0.11248379 -0.21122938 -0.08811599 -0.32616544 0.22497723 0.27810952
0.10146056 -0.3900724 0.27684528 0.4715179 0.06105599 -0.15052934 -0.12193809 -0.40634695
-0.40190512 -0.3746125 -0.21481144 -0.22568737 0.07896709 -0.061563123 0.25007883 0.21460935
0.43425962 0.473848 -0.4095093 0.4134886 0.30580792 0.024384785 -0.22868766 0.36824745
0.08332824 -0.25781405 0.068104826 0.17849143 0.40063345 0.19973697 0.0345196 -0.41491774
0.20273757 0.175476 -0.15631871 0.11393336 -0.48325902 0.0908053 -0.40336257 -0.18593112
-0.31358802 -0.39491835 0.015244328 0.19323012 -0.24836543 0.06689969 -0.47742584 0.36431563
-0.17421065 -0.2494265 -0.11839663 -0.081874624 -0.10660569 -0.01268639 -0.4988747 0.48442575
-0.19813828 0.3907826 0.04287735 0.4357692 0.02054417 0.10818742 0.3531808 0.005049805
0.35401583 0.38170648 -0.06995188 0.3152723 0.2619042 0.32247925 0.30600873 0.46858558
0.3311171 -0.13193673 0.082737096 0.22453497 -0.24760035 -0.090983614 0.25337502 -0.3497404
-0.104088716 0.18858138 0.3750673 -0.49285987 -0.040158615 0.2814661 -0.086796604 0.42174512
-0.016147658 0.1778504 -0.13401973 0.30373996 0.44626608 0.335208 -0.091899574 -0.09015521
0.121729925 0.37732294 -0.3809164 -0.40334606 -0.1917753 0.24865466 0.09667106 0.1746217

fc1.bias f4 [1024]
00000000: 1414 9d3e 7635 bcbe d3da bebe 2278 febe
00000010: 11ca b2bd 93f0 c53e d3bc 343e d3e0 c7bc
00000020: e793 0d3e 3fc4 f5be e0a6 ec3e f6b7 dfbe
00000030: 6cfe 323e 0d18 dbbe 38a2 b53e 222e fd3e
00000040: 3916 c6be 7e5e 943e 4292 743e c85a fb3e
00000050: 8622 b6be 57b2 e3bd a686 5cbe 6d17 98bd
00000060: e248 123e 0c72 85be 42db f43e 4a8e 7cbe
00000070: 7128 093e c128 90bd f6d9 ea3e 3222 e63e
00000080: b9a9 b1be 996b d03e 9a78 efbd ed23 51be
00000090: 58f2 ebbe d09e c43e 85f3 df3e 36d4 b83e
000000a0: 760b 44bc d19b f53e c5d3 72bc d1d1 9d3e
000000b0: 6105 9a3c adae a7be d520 5bbe de9d d43c
000000c0: 94c7 47be e9a9 6cbc 0f45 dabc 4af4 b6be
000000d0: 227c d33e 8b4f aa3e be45 0c3e 4132 3ebe
000000e0: b3f1 cb3e 0ebd 5a3e f7b2 d6bd 5905 fc3e
000000f0: 1bb6 f5be dc37 483d 58c0 733c 15e3 f13e
00000100: 12d1 e93e 4652 8ebe 443a a13e 97b3 bfbe
00000110: 335f c6bc c1bb 683c a4da f03e 1938 a9be
00000120: 344e a63e a7c2 edbe 50c2 abbe ea39 763d
00000130: 62fd 57be 480e 8c3e f4c2 98be 3828 f5be
00000140: 20d8 aa3e cc08 d13e f1dc 5a3e f7cd fb3e
00000150: b334 bd3e 2b40 4dbe 13e6 ff3d 8c48 d3be
00000160: adfc aa3e 7330 013e bb65 d43e c5d8 8d3d
00000170: 4de3 fa3d 778e e4bd c20b 57bc 4883 fd3e
00000180: 29dc dcbe 4067 b93c 2495 77bd b8e5 d2bc
00000190: e862 403e d75c bc3e 189f 3d3d 5dcb d7be
000001a0: e24c fabe a6b5 b8bb 4e9d a33e bb80 a63e
000001b0: 6361 58be a996 393e 7c99 efbe 8411 b7be
000001c0: c297 e8be 8a2b 943d 2907 923e 7db1 43be
000001d0: 420b 17bd e71b 583d 08c8 78be 55bb 4c3e
000001e0: 8bed 303e ecf5 93bc 12bc e9be 471d cdbe
000001f0: aaaa 42be 45b9 e8be b15c 0fbd 1662 443b
00000200: f956 bd3e 524f 703e 4f1d 3abe 0db5 c23d
00000210: f20e ddbe 3b7c 5dbb 6093 aa3e ad57 76be
00000220: 2f7e af3e 4008 fc3e 7174 413e 6e74 fdbe
00000230: b95a c8bd a8b4 c7be a5f9 1dbe f0a2 08bd
00000240: ace4 2cbe a229 a5be b017 e53e b6fe 093d
00000250: 2198 aa3e f5c9 cb3e cecd 883e 2f93 32bd
00000260: 1b73 7ebe 8fd8 db3e dec5 a93e fa65 3dbe
00000270: 5baf 3e3e c948 15bd 2a29 babb 6b49 c73d
00000280: 2c32 27be ed53 d43e 09c2 9fbe 8dae e33e
00000290: 49ae cc3e 7bad d9be 98aa 45be 6948 ffbd
000002a0: a806 84be a0f4 e0be 43ea 8bbe 2e25 fa3e
000002b0: 058d b5be 9538 4a3d e91b afbd 491c fabe
000002c0: 6342 39bd 32a9 b13e 4591 eb3e 4f47 aebe
000002d0: 5722 b53e 8506 d63e 90dc ca3e bf88 b3be
000002e0: 08ea f8be 4716 68be c86c 09be 13f2 f63e
000002f0: 5d04 ef3e f4f0 83be 1aea 9a3e 3c66 6bbe
00000300: d669 e43e f926 72be bc30 e53e b35e 763e
00000310: 4b4e 9ebe 5200 f83e 12ac 403d a860 9e3e
00000320: 7322 7bbe 2207 bdbe dff9 46bc a4db a7be
00000330: ef68 64be 07af 22be 206c 2f3b 9843 b83e
00000340: fdb2 553e 9954 143e e4c2 f93e 4514 b0be
00000350: aab0 c0be 6860 f13e a492 0fbd 3482 853d
00000360: 9d6e adbe 19ba 5a3e 933a eabe de95 fbbe
00000370: d8bb babe ea21 b0be f633 2dbe ee9f 5d3e
00000380: 16f5 3e3e 32fb 0f3d fe3f acbe e72c 9c3d
00000390: 4592 ad3d 8c11 173e 2cea 87bd df9c a73e
000003a0: cd0e 403e 3528 aabe c7fd a03e 682a f63d
000003b0: c9d6 ad3e ce6a 053d b89c a63d f917 0fba
000003c0: d8d6 d63e fbd5 28be 4546 26bc 2473 02bc
000003d0: 4d1d c43e 93a4 923e c5a8 11bd 34de 083d
000003e0: 5446 50be 01f2 a1be e121 d3be 5996 6fbe
000003f0: 5a3b b9bd 17c7 4d3e a8be 1d3e 4957 cebe
0.3067938 -0.36759537 -0.37276325 -0.4970103 -0.08729947 0.38660106 0.17650156 -0.024399197
0.13825952 -0.48001286 0.46221066 -0.4369504 0.17479867 -0.42791787 0.35475326 0.4944926
-0.3868883 0.28978342 0.23883918 0.49092698 -0.35573214 -0.11118 -0.2153574 -0.07426343
0.14285615 -0.26063573 0.4782353 -0.24663654 0.13394333 -0.07039023 0.45869416 0.44947964
-0.346998 0.4070709 -0.11692925 -0.20423861 -0.4608333 0.38402414 0.43740478 0.36099404
-0.011965623 0.4797044 -0.014820998 0.3082414 0.018801393 -0.32750455 -0.21399243 0.025954183
-0.19509727 -0.014444807 -0.026644258 -0.35733253 0.41305643 0.3326381 0.1369848 -0.18573858
0.3983284 0.21361181 -0.104833536 0.4922283 -0.47990498 0.048881397 0.014877401 0.47243562
0.4566732 -0.27797145 0.31489766 -0.37441704 -0.024215316 0.01420492 0.4704181 -0.33050612
0.3248154 -0.4643757 -0.33546686 0.060113825 -0.21092752 0.27354646 -0.29836237 -0.47882247
0.33368015 0.40827024 0.21373345 0.49180576 0.3695427 -0.2004401 0.12495055 -0.41266286
0.333959 0.12616138 0.41483864 0.06926111 0.122503854 -0.111599855 -0.013125362 0.49514222
-0.4313672 0.022632241 -0.060444966 -0.025744304 0.1878773 0.3678958 0.0462943 -0.4214734
-0.48886782 -0.0056368886 0.3195595 0.3252009 -0.211309 0.18123879 -0.46796787 -0.3575555
-0.45428282 0.07234867 0.28521088 -0.19110675 -0.03687597 0.052760985 -0.24295056 0.19993336
0.17278115 -0.0180616 -0.456513 -0.400614 -0.19010416 -0.4545385 -0.035000507 0.002996569
0.36980417 0.23467758 -0.18175243 0.09507189 -0.43175465 -0.003379597 0.33315563 -0.24056883
0.34275958 0.49225044 0.18892075 -0.4950289 -0.09782929 -0.39005017 -0.15427263 -0.033358514
-0.16884106 -0.32258326 0.44744635 0.033690177 0.3331919 0.39802518 0.26719517 -0.043597396
-0.24848597 0.4293866 0.33158773 -0.18495932 0.1862158 -0.036446366 -0.0056811767 0.097308
-0.16327733 0.4147028 -0.31202725 0.4446911 0.3997672 -0.42515168 -0.19303358 -0.12464983
-0.25786328 -0.43936634 -0.27327165 0.4885649 -0.35459152 0.049370367 -0.08550245 -0.48849705
-0.045229327 0.34699398 0.4600927 -0.3403878 0.35377762 0.4180185 0.396214 -0.35065266
-0.48616052 -0.22664748 -0.13420403 0.48231563 0.46683016 -0.2576977 0.3025673 -0.22988218
0.44611996 -0.2364768 0.44763744 0.24059562 -0.30919108 0.48437744 0.0470391 0.30933118
-0.2452486 -0.36919504 -0.012144535 -0.3278476 -0.22305654 -0.1588708 0.0026767328 0.3598907
0.2086906 0.14485396 0.48781502 -0.34390464 -0.37634784 0.47143865 -0.035051957 0.06518975
-0.33873454 0.21360053 -0.45747814 -0.49137777 -0.36471438 -0.34400874 -0.16914353 0.2164304
0.1864818 0.035151668 -0.33642572 0.07625752 0.08475164 0.14752787 -0.066364616 0.3273687
0.18755646 -0.332338 0.31443617 0.12019807 0.3395293 0.03257256 0.081353605 -0.00054585893
0.41960788 -0.16487877 -0.0101485895 -0.007962022 0.38303605 0.28641185 -0.03556134 0.033415034
-0.20339328 -0.31629947 -0.41236785 -0.23397197 -0.090445235 0.20095478 0.15404761 -0.40300968

fc2.weight f4 [128, 1024]
00000000: e327 883c 0809 a3bc b275 d8bb 7c77 2d3c
00000010: 4d74 483c a88f 7c3c 0957 0c3b 4e6a 57bb
00000020: 17da 9fbb dcf2 fd3c 8705 cbbc a0e3 ce3c
00000030: cfeb 673c 6d20 a6bc b79a e0bc f7a4 afbc
00000040: 96e4 b5bc 07f9 6ebc ea01 9b3b 7365 0ebc
00000050: 445f f0bc a820 2b3b 38e8 bc3b 56c3 983c
00000060: 92f3 993c bc8f e73c 8dd5 51bc c24e 04bc
00000070: 2d58 5dba dde8 eabc 391f cfbc 8e04 27bc
00000080: e8e0 e13c 6bdb c1bc 2c07 27bc 6c25 3a3c
00000090: cc6c 01bc baa7 8c3c fa29 23bc 0f13 d5bb
000000a0: bc8a 4c3b 1d12 9dbb d37a f83c 6cb6 16ba
000000b0: 4925 4bbc 66f1 b9bc 405e d9bc c207 4dbb
000000c0: 13e5 c2bc 3148 dd3c f67e 163c 650f 823c
000000d0: e7fe a5bc 8fdb ecb9 475c b43c 5578 75bc
000000e0: 103d 2dbb 5832 aebc 0c59 ec3c 5c26 57bc
000000f0: 1fdc 013c 5e84 8b3b c143 11bc c209 213b
00000100: 64af edbb 8325 e93c 1ac7 67bc fcfe d93c
00000110: d972 95bc f2c5 4bbc fdbe eabc 0c3c 4d3c
00000120: 99f1 a93c 089c fabc b9f2 c93c 60d8 f4ba
00000130: 9532 ed3c 74fc 9abb 5a7b a5bc 832c f13c
00000140: 19c3 543c 6d85 d5bc 6713 743b efd9 db3c
00000150: 0f48 2dbc 20e7 803c c6ac 3b3c fb64 993c
00000160: c789 96bb a5e9 feba d24c d53c 92e5 873c
00000170: 46c5 583a dc03 a13c dc59 ed3b 870c 98bc
00000180: 8ecc 3e3b 68f5 5bbc a537 8b3b 6f31 b5bc
00000190: 947b d8bc dac1 b1bb 9608 3bbc b5ae 673c
000001a0: 0c17 e2bc c471 4d3c 9671 2c3b da41 a13a
000001b0: 859c cf3c 13b2 8e3c fd89 ff3c 803e 49ba
000001c0: 089a 8dbc f77e 29bc f848 583c beb7 8f3c
000001d0: f4e9 89bc 6fb6 d73a 64ab a0bc d500 ee3c
000001e0: 56dc 423c ac35 cc3c 7c54 d4bc 4461 e83a
000001f0: 2970 f33c 9e33 013c e802 9c3c dc95 d239
00000200: 13ca 383c e88a eebb 254d d6bc 9db4 7e3c
00000210: d690 dc3c 03f1 86bc 2a9a 9bbb 715e cf3c
00000220: 9dd1 3fb9 be75 fdba 5349 1f3c 07cf 04bb
00000230: 6f1e 0ebc 07d3 48bb 909f 9dbb e5a0 843b
00000240: a35c 66ba 3f49 fb3b a37f 263c 9e95 f3bb
00000250: d98f 4b3c c625 423c 9510 64bc 0971 8dbb
00000260: 7841 853c 0ebf 8e3c b2c3 57bc 70bb 553c
00000270: 0f94 bcbc 9354 113b 6005 fb3c db35 f7bb
00000280: 3e5a e53c 92b0 c7bc 86f3 a33c 60f1 98bc
00000290: 68fb a43c 83ed c13c 6f6e 5a3c d932 333c
000002a0: 9b9c ec3c 2264 b1ba 060c ad3c c549 a8bc
000002b0: 77ee ca39 8b1a 05bc 99d5 c1ba 3cee d13c
000002c0: ffe8 7f3c 3a73 f7bc 7bb1 a63c dca9 69bb
000002d0: 5f24 b4bc bb58 0e3c 7837 eb3c a8e9 0ebc
000002e0: 0e33 fd3c b9c4 903c 5306 2fbc 9b7d 893c
000002f0: 5c2b 2bbc 2cf9 003c 64f9 0fbb 50bf 34bb
00000300: c7aa 6a3a 980a 333c 072e ffbb ef2c 2bbc
00000310: 3d2c 2ebb 853a e13b 5702 9bbb da61 a9bc
00000320: 437c e2bc a0cd 473b 151f cebc e2ef 90bb
00000330: 408c e13c 222d f7bc 7f7e cf3c 5b75 6abb
00000340: 316e d03b f86f 7a3c 9320 333c 936f f83c
00000350: 08d2 a83c 2b06 15bc 83b8 e73b 8bc2 ed3c
00000360: 0453 413c 4191 a43c e648 df3c 7a25 2dbc
00000370: b8ee e23c c111 4e3c a112 d13c 6163 1b3c
00000380: 1260 f13c 830d 9cb8 dbf6 4ebc e532 98bc
00000390: a38d 593c 7604 8fbc c03c adbc 3265 cdbc
000003a0: f028 c93c 0d28 91bc a0af 1dbc 1323 8e3c
000003b0: 7bc4 c9bc 337d 013c df59 c03c d611 c43c
000003c0: 5165 f6bb 019e b2bc 0ad7 f3bc 08e0 893c
000003d0: 65e7 26bc 152e be3c 7512 dbba 7c4a dcbc
000003e0: a8d6 883c 5b25 febb 1a1d a73c 8a73 46bc
000003f0: d637 bfbc c959 913c d559 1f3c 912f e0bc
0.016620582 -0.019901767 -0.0066058272 0.010587569 0.0122347595 0.01541511 0.0021414182 -0.003286976
-0.0048782933 0.030999593 -0.02478291 0.025255024 0.014155342 -0.020279134 -0.027417524 -0.021440966
-0.022203725 -0.01458574 0.004730453 -0.00869118 -0.029342301 0.0026111994 0.0057649873 0.018647831
0.018792901 0.02826678 -0.012807262 -0.008075418 -0.000844362 -0.028675491 -0.025283443 -0.010193957
0.027573064 -0.023664197 -0.010194581 0.011361461 -0.007899474 0.017169822 -0.009958738 -0.006502516
0.0031210622 -0.004793419 0.030332005 -0.0005749229 -0.012399026 -0.022698116 -0.0265342 -0.0031285142
-0.023790872 0.027011963 0.009185543 0.015876481 -0.020263148 -0.00045177012 0.022016658 -0.014982303
-0.0026434101 -0.02126424 0.028851055 -0.013131704 0.007926016 0.0042577228 -0.008866251 0.0024572467
-0.007253574 0.02846027 -0.014146591 0.026610844 -0.01824324 -0.012437331 -0.028655523 0.012526523
0.020745086 -0.03059198 0.024651872 -0.0018680207 0.028954783 -0.004729802 -0.02020042 0.02944017
0.012985968 -0.026064599 0.003724301 0.026837317 -0.010576262 0.015735209 0.011454767 0.018724909
-0.004594061 -0.0019448294 0.026037607 0.01658896 0.0008269142 0.01965516 0.007243378 -0.018560661
0.0029113623 -0.013425209 0.0042485767 -0.022118298 -0.026426114 -0.0054247202 -0.011415621 0.0141407745
-0.02759888 0.012539331 0.002631282 0.001230295 0.025343189 0.017418897 0.031193728 -0.0007676855
-0.017285362 -0.010345212 0.013200991 0.01754367 -0.01683519 0.0016457568 -0.019612975 0.029053131
0.0118933525 0.024927936 -0.025919192 0.0017729183 0.029716568 0.007885842 0.019044355 0.00040165975
0.011278647 -0.0072797425 -0.026159832 0.015545991 0.026924532 -0.016472345 -0.0047486024 0.025313588
-0.00018293266 -0.0019337458 0.009722072 -0.0020265 -0.008674248 -0.003064336 -0.004810281 0.0040475004
-0.00087876077 0.0076686437 0.010162267 -0.0074336072 0.012424433 0.011849826 -0.013919969 -0.0043164534
0.01626657 0.017425086 -0.013169216 0.013045177 -0.023019819 0.0022175654 0.030642211 -0.007544262
0.027997132 -0.024376187 0.020013582 -0.018669784 0.020139411 0.023672825 0.0133319935 0.010937416
0.028883269 -0.001353387 0.021123897 -0.020542989 0.00038706113 -0.008124004 -0.0014788389 0.025626294
0.015619515 -0.030206311 0.020348301 -0.0035654223 -0.02199 0.008688147 0.028712973 -0.0087227
0.030908134 0.01767193 -0.01068266 0.016783526 -0.010447349 0.007871907 -0.0021968717 -0.0027579851
0.00089518394 0.010927819 -0.0077874693 -0.010447725 -0.002657666 0.006873431 -0.0047305035 -0.020676542
-0.027647143 0.0030487552 -0.025161305 -0.0044231275 0.027532697 -0.030172888 0.025328873 -0.0035775516
0.006360792 0.0152854845 0.010933059 0.03032664 0.020607963 -0.009095709 0.007071556 0.02902343
0.011799578 0.020088794 0.02725644 -0.010568017 0.02770172 0.012577475 0.025521578 0.009484143
0.029464755 -7.4411764e-05 -0.012632097 -0.018578956 0.013278398 -0.017458182 -0.021147132 -0.025072668
0.024555653 -0.017719293 -0.009624392 0.017350709 -0.024629822 0.007903385 0.023480354 0.023934286
-0.007519402 -0.021803858 -0.029765625 0.01683046 -0.010187005 0.023215333 -0.0016713875 -0.026890986
0.016703919 -0.007755918 0.020399619 -0.012112508 -0.023342054 0.017743008 0.0097260075 -0.027366431

fc2.bias f4 [128]
00000000: d4dc 833c c1e5 6b3a 45f7 033d 14b1 833c
00000010: 063b eb3b 2437 e73c 8f11 b3bc 4336 bbbc
00000020: b50a 3b3c 59b3 9c3c 4026 a4bc 7232 95bb
00000030: 7c19 e9bc 03e1 a4bc cebc ff3b ed37 81bc
00000040: 93a7 5c3c 07ea cbbc 341f 14bc 48c7 e0bb
00000050: ae03 153e 3db5 cabc 76bb e4bc 5511 e13c
00000060: b4fd 243c 9e20 833c d8b9 e63b 8dd5 c0bc
00000070: 500b d63b 0c08 853c 0c4a 20bc a8c0 a33c
00000080: aad6 d4bc bd8d 48bc c445 6f3c 48b1 bd3c
00000090: 95bd 703b 8f43 e43c 277d df3c d5d0 023d
000000a0: 9a7d dfbc eebc 843c 70df 7f3c 5241 a4bb
000000b0: 14f5 8d3c 18a5 f6bb 4138 a8bc 1fb0 a1bc
000000c0: 0317 cfbc 42c4 f6bb 8288 0d3d 58a1 e1bc
000000d0: 2272 32bb 5222 f23c 91e1 55bc 679e 4c3b
000000e0: 8c03 2bbc 7a07 983c bd2d d6bc 19ae 99ba
000000f0: d427 ce3b 5064 8fbb 0d8f e13c 3134 c13c
00000100: 3ec5 b9ba 6060 f63b e653 313e 0078 633c
00000110: 1a8e 68bc 1839 983b 4e25 88bc 51be 6c3d
00000120: d362 f3bc 0775 8bbc b679 ebbb d9af 36bc
00000130: a74e de3c a5ca c73b 54b7 423c cfbb 55bc
00000140: 94f5 0bbb 9a74 00bd ae15 b83c b1cd f33b
00000150: 9be5 cebb 0157 bebc 226b c13c dd4d 943c
00000160: d1fe 7fbc 239b a5bc 4136 09bd 926e e6bc
00000170: 2042 643a 0d34 0d3c 2707 263c c235 b6bc
00000180: 1679 9bbc d4ba 523c d365 d63c 9cc0 e53b
00000190: 8e7b cd3b 1558 d03c 3909 603c 94af 3b3b
000001a0: f256 0cba d936 6abc dd79 a6bc f543 51bc
000001b0: 31ce d2bc 481a 85bc 23eb 043d 6acb 85bc
000001c0: 8bf1 c5bc 475d 733a 0f32 cfbc fdfd dd3c
000001d0: f68f af3c 2376 f93c a38d 503c 910b 81bc
000001e0: 3d7b 253c ded1 523c 0523 3f3c a414 cbbc
000001f0: a614 d03c 68bc e43c df6f 9eb9 e71f 6dbc
0.01609651 0.00089987746 0.032218236 0.016075648 0.007178667 0.028224535 -0.021858959 -0.022853022
0.011416127 0.019128488 -0.02003777 -0.0045531327 -0.028454535 -0.020126825 0.0078044897 -0.015773738
0.013467687 -0.024891866 -0.0090406425 -0.0068596937 0.14552185 -0.024744624 -0.02792142 0.027474085
0.010070253 0.016006764 0.0070411973 -0.023539329 0.0065321103 0.016239189 -0.009783279 0.019989327
-0.025981266 -0.012240824 0.014604036 0.023155823 0.0036734093 0.027864246 0.027281357 0.03193744
-0.027281571 0.01620337 0.0156172365 -0.0050126696 0.017328776 -0.007527005 -0.020534636 -0.019737301
-0.025279528 -0.00753072 0.034554012 -0.027542755 -0.0027228673 0.02955738 -0.0130542675 0.0031222345
-0.010437857 0.018558253 -0.026144857 -0.0011724859 0.006291369 -0.004375972 0.027534032 0.023584457
-0.0014173163 0.007518813 0.17317161 0.013883591 -0.014194036 0.004645478 -0.01661935 0.057798687
-0.029710209 -0.017023576 -0.00718614 -0.011150324 0.027137114 0.006097155 0.011884529 -0.013045265
-0.0021356093 -0.0313612 0.022471275 0.007440292 -0.006313992 -0.023234846 0.023610655 0.018103534
-0.015624718 -0.020215577 -0.033499006 -0.028128896 0.0008707363 0.008618367 0.010133541 -0.02224243
-0.018978637 0.012861926 0.0261716 0.007011486 0.0062708324 0.025432626 0.013674074 0.0028638588
-0.0005353532 -0.014295303 -0.02032178 -0.01277255 -0.025733085 -0.016247883 0.032450806 -0.016332347
-0.024163028 0.0009283614 -0.025292424 0.02709865 0.02143095 0.03045184 0.012729081 -0.015752586
0.010100183 0.012867419 0.011666064 -0.024790116 0.025400471 0.02792187 -0.0003021946 -0.014472938

fc3.weight f4 [2, 128]
00000000: 7c6f 14bd e8e4 7e3d 01b1 24bd 846c ffbc
00000010: 2732 703d 5088 c13c cf1f 563d f542 913d
00000020: d071 96bd fbb8 333e 5acd e83c 4088 37bd
00000030: 87da 90bd 936b 693d 6591 e93d 2579 e33c
00000040: 1a1f a23d 1c5f 64bd f73d 163e 20b0 3e3b
00000050: 1654 223f bf11 3ebd cd66 aa3c f024 953c
00000060: 4ea4 0d3c 9b5c 36bd 5772 e43d 3262 5b3c
00000070: 026a 123d 4ba0 9e3d 105f 823c 9cdb b4bc
00000080: df03 56bc cc08 973d e343 413c 4e1d 06bd
00000090: 0d68 a83c f827 103e db84 9dbc 02eb 1ebd
000000a0: e66d b33d fd3b 9bbd 56e4 2e3e 2244 c6ba
000000b0: 32f5 1e3e 0cee 8f3e a214 803c 0b0b 263e
000000c0: d5f8 7bbd a07d 6abd b92b b23d cac4 813c
000000d0: 819a b83c 8ab7 333e e295 873d 61ec c93d
000000e0: 341d 61bd 7d9f 333e 46ae 7ebd cc14 21bd
000000f0: c63f af3d bece aa3d 4c9f a9bd e0c5 89bd
00000100: d124 d5bc b77f 843d ca0c 603f 953f d93a
00000110: 5d01 51bd 0950 283c 33ef 99bd 696d b23e
00000120: a827 1fbd ec91 9ebc 520d 563e 2606 ac3d
00000130: bcf1 76bd 2c56 89bd 3915 81bc 14a5 533d
00000140: b1a3 8f3e ea2f a13d bbaf 9abd fdc8 4a3d
00000150: 9390 d53d f9f8 373d 1ed7 ecbc 2dcd 823e
00000160: fd6d 333d 04b9 a8bd df1f 583d 725b 373d
00000170: 1acf cc3b 4d28 5abd e7b6 a33c 6b1f 543d
00000180: 347e 253e 9caf 713d 6d35 1f3e 733a 95bd
00000190: 4da2 2abd 3a07 2b3e 3b81 98bc 7d7a 1b3c
000001a0: f5a3 84bd a674 133d b086 3ebd aa3d 9ebc
000001b0: 5bcd 26bc d7de 9fba bdd5 793d d875 773c
000001c0: ab15 d9ba ace4 a43d e5dd 983d 4228 783d
000001d0: b8b7 193e e3e5 e1bc a2c3 313b 759a 87bd
000001e0: 9baa 483d 566c 52bd 5596 3a3d 0313 b63c
000001f0: 63cf 213e 6780 153e 28dd 053c 746d 1d3e
00000200: ceb8 1e3d 47d3 8bbd 2b77 003c 3d1e e9bb
00000210: 1c00 303c 47ff 4bbd c580 85bd 2a4f c83d
00000220: d318 803d 48a5 2b3e 7d12 ee3d be84 673d
00000230: 076c 983d d7c8 e1bb 31ae 78bc 8d1a d73d
00000240: a76b bebc 5f1d 023d 34de d23d aa3b 76bd
00000250: dca9 063f 71ea 1c3d 0288 e53c b183 27bb
00000260: 87bc 543d 98a7 753c 8b50 e63c bd0e 773c
00000270: c4c5 89bd 5c8b 013d d01c 3bbc 3e79 223d
00000280: eaa7 ccbc 710a c23d 166d 37bd c5d7 96bc
00000290: 5aa7 54bd dcc7 7a3e e350 8e3c b59a a1bb
000002a0: a37f 903d 2703 d13c 1609 7c3d 206f 80bd
000002b0: 03da e13d b04f 8e3e 7251 4b3d aa7d 413d
000002c0: b0ae 523d e8ac 3b3d 4190 be3d 5885 8bbc
000002d0: 00a6 31bd ef85 e33d b2b2 103e 8c3f ff3d
000002e0: 5000 54bc e998 c23d 3dbc 3dbc f9ca 72bd
000002f0: 3d2d 2b3e b31a 9e3c 4e15 6a3d 722c f9bb
00000300: b742 4d3c df86 dfbc 1f43 5a3f 2bae 1abc
00000310: 9073 1bbd fc6b fb3d 7ffa 903d ceb4 d33e
00000320: cd2b 52bc 8b99 1cbc 4e43 1c3e c55d b53a
00000330: ab6e a83d 39c2 f7bc 8c56 b53d 1b37 94bd
00000340: 9c5c a23e d6ad 2a3d a07c 2bbc e5e6 1b3e
00000350: e76a e53d 210f 01bd 0ccb 373d 42c0 663e
00000360: e79e be3d ffb0 1a3d 7197 b1bd e6af 24bd
00000370: 1cbe 29bd 8ad9 bc3d 6606 c5bb 344b 043d
00000380: f533 fc3d db43 623d 9008 c23d 7362 36bc
00000390: c6ef c7bc 9d60 2c3d 516d 673a 372e a3bd
000003a0: 81dc a13d 43a5 92bd 2379 b43b da3e 793d
000003b0: 0748 993c 030e 87bc d5f4 b63c 18b2 18bd
000003c0: 34e7 3ebd 1afa a3bd 4c41 803d 8465 89bd
000003d0: f5dc d83d 9cef b93d 2e0f 8d3d 47bc 613d
000003e0: 5489 73bd 4c86 1dbd d63b 6abd 3106 833d
000003f0: ece9 4a3d 99a2 e83d 40b9 59bd 9321 133e
-0.036239132 0.06223002 -0.040207867 -0.031179674 0.05864158 0.02362457 0.05227643 0.07092849
-0.07345927 0.17551033 0.028418232 -0.044807673 -0.07072931 0.056987356 0.11404685 0.027767727
0.079160884 -0.055754766 0.14672075 0.0029096678 0.63409555 -0.046403643 0.020800972 0.01820609
0.00864513 -0.04452191 0.11154621 0.013390111 0.03574563 0.07745417 0.01591447 -0.022077374
-0.013062446 0.07374725 0.011795971 -0.03274279 0.020557428 0.14077747 -0.01922839 -0.03879834
0.08761196 -0.07579801 0.17079291 -0.0015126506 0.15523222 0.28111303 0.015634838 0.1621515
-0.0615166 -0.05724871 0.08699746 0.015840907 0.02253461 0.17550483 0.06620385 0.09859539
-0.05495949 0.17541309 -0.06217792 -0.039326474 0.08557086 0.08340214 -0.082823366 -0.06727195
-0.026018532 0.06469672 0.87519515 0.0016574735 -0.05102669 0.010272988 -0.07516327 0.34849098
-0.03885618 -0.01935669 0.20903519 0.0839961 -0.06028913 -0.06705889 -0.01575719 0.051671103
0.28054574 0.07870467 -0.07553049 0.049508084 0.10427966 0.044915173 -0.02891117 0.25547162
0.043806065 -0.08238414 0.05276477 0.044764943 0.0062502744 -0.05326109 0.019984676 0.051787775
0.16161424 0.059005365 0.15547724 -0.07286539 -0.04165869 0.16701975 -0.01861631 0.009489653
-0.06476585 0.035999916 -0.046515167 -0.019316513 -0.0101807965 -0.0012197149 0.060994852 0.01510378
-0.0016562244 0.08051428 0.07464198 0.060585268 0.1501149 -0.027575439 0.0027124663 -0.06621257
0.048990827 -0.05137285 0.045553524 0.022225862 0.15801768 0.14599763 0.008170404 0.15373784
0.038750462 -0.06827407 0.007840912 -0.0071142004 0.010742214 -0.049804 -0.065187015 0.09780724
0.06254735 0.16762269 0.1162462 0.056523077 0.074424796 -0.006890397 -0.015178249 0.10503111
-0.023244692 0.03176629 0.10296288 -0.060115494 0.52602935 0.03830952 0.028018955 -0.0025560672
0.051937606 0.014993571 0.028114578 0.0150791975 -0.06727174 0.031627044 -0.011420444 0.039666407
-0.024982411 0.09474648 -0.044781767 -0.018413434 -0.05191741 0.24490303 0.017372554 -0.0049317726
0.07055595 0.025514198 0.061532103 -0.062711954 0.110279106 0.27795172 0.04963822 0.047238983
0.051436126 0.045819193 0.09304858 -0.017031357 -0.0433712 0.1110953 0.14130667 0.124632925
-0.012939528 0.095018215 -0.011580524 -0.0592756 0.16716476 0.01929984 0.057149224 -0.0076041752
0.012528113 -0.027285991 0.8525867 -0.009440939 -0.037952006 0.12276456 0.07079028 0.4134888
-0.012827826 -0.009558092 0.1526005 0.001383715 0.08224233 -0.03024398 0.08854398 -0.07237073
0.3171128 0.04166969 -0.010466725 0.15224798 0.11202031 -0.03150857 0.044871375 0.22534278
0.09307652 0.037766453 -0.08671463 -0.040206812 -0.041441068 0.0922118 -0.0060127256 0.03229828
0.123145975 0.055240493 0.094742894 -0.011131871 -0.024406325 0.042084325 0.000882824 -0.07967799
0.07903386 -0.071604274 0.0055076047 0.060850956 0.018711103 -0.016486173 0.022333542 -0.03727922
-0.04660721 -0.080066875 0.062624544 -0.06708816 0.10589019 0.09078905 0.06887661 0.055111196
-0.05945714 -0.038458154 -0.05718597 0.06397665 0.04953949 0.11359138 -0.053155184 0.14368276

fc3.bias f4 [2]
00000000: 2935 f73e 58b5 113f
0.48282745 0.56917334
