breakout-40000-weights.pth (torch, 894407 bytes, 10 tensors)

conv1.weight f4 [16, 4, 8, 8]
0	0xbe09ea4c	-0.13468283
1	0x3d531f77	0.05154368
2	0x3d4b47b0	0.049628913
3	0xbc9a7a50	-0.018857151
4	0x3ccc44cd	0.02493515
5	0x3d52b25f	0.05143964
6	0x3e4ecf9c	0.20196384
7	0xbcbe3399	-0.023217963
8	0xbdef7d1d	-0.11693785
9	0xbd9e91d4	-0.07742658
10	0xbc331c13	-0.010931986
11	0x3c474b87	0.012164003
12	0xbdd4f156	-0.10397594
13	0xbd33449f	-0.043766614
14	0x3c97bf49	0.018523829
15	0xbb07faea	-0.0020748922
16	0xbdca6834	-0.098831564
17	0x3c85495f	0.016270338
18	0xbbd23a1c	-0.0064156186
19	0xbe01627f	-0.1263523
20	0xbdd4466f	-0.10364997
21	0xbdb086fa	-0.08619495
22	0x3cfbd1e8	0.03073974
23	0xbd8fa1e6	-0.070133016
24	0x3cf6ce67	0.030127717
25	0xbc8d4770	-0.017245978
26	0x3bd65bbe	0.0065416982
27	0xbdaf9760	-0.08573794
28	0xbd4ef288	-0.050524265
29	0xbd6d58a2	-0.057945855
30	0x3d5cf0fa	0.05394075
31	0xbe02dbac	-0.1277911
32	0xbe267acd	-0.16257782
33	0xbd3c934b	-0.046038907
34	0x3a4fa147	0.00079204555
35	0xbd888129	-0.0666526
36	0xbdd0addb	-0.1018941
37	0xbda181c4	-0.07886079
38	0xbd619b9b	-0.055080038
39	0xbd7b0c7c	-0.061291203
40	0xbd248f41	-0.04017568
41	0x3cd8e636	0.02647696
42	0x3d891008	0.06692511
43	0xbd238b25	-0.03992762
44	0xbdc02732	-0.09382476
45	0xbd5caca2	-0.053875573
46	0xbd75adb1	-0.0599801
47	0xbd32e2db	-0.043673377
48	0xbc992e6f	-0.0186989
49	0x3c7f0930	0.015566155
50	0xbc8ef6c8	-0.017451659
51	0x3d8524ed	0.06501184
52	0x3d762695	0.06009539
53	0x3d18706f	0.0372166
54	0x3bc32024	0.005954759
55	0x3d9542b5	0.07288114
56	0x3dc77d2a	0.0974067
57	0x3e2fcdba	0.17168322
58	0x3de73d3d	0.11290977
59	0x3e2c7429	0.16841187
60	0x3dd695a7	0.10477763
61	0x3dd73307	0.105077796
62	0x3df07ad2	0.11742176
63	0x3e34315a	0.17596951
64	0xbe19d36c	-0.15022057
65	0x3d43147a	0.04762695
66	0x3c126790	0.008935824
67	0x3d5ec68f	0.05438858
68	0x3ce15b99	0.027509497
69	0x3da4bb58	0.080435455
70	0x3e82b4c6	0.25528544
71	0x3c36667e	0.0111328345
72	0xbddba7cb	-0.10725363
73	0xbd794b48	-0.06086281
74	0x3aa5c5b8	0.0012647426
75	0xbd6ea1e4	-0.05825986
76	0xbdeb84fe	-0.114999756
77	0xbc0dcb89	-0.008654484
78	0x3d661c7a	0.0561795
79	0xbd5407f8	-0.051765412
80	0xbc4a2ab2	-0.012339281
81	0x3d3198a3	0.043358456
82	0x3da2b409	0.07944495
83	0xbda8c195	-0.08240048
84	0xbcf46424	-0.029832907
85	0xbde2eecd	-0.11080704
86	0xbceed0b9	-0.029152261
87	0xbce4e210	-0.027939826
88	0xbd306de2	-0.043073542
89	0xbc4b0085	-0.012390261
90	0xbcfc63c7	-0.030809296
91	0xbded5778	-0.11588949
92	0xbd891550	-0.06693518
93	0xbd6386c4	-0.055548444
94	0xbcc5e82e	-0.024158563
95	0xbde48b61	-0.11159397
96	0xbd8b8f42	-0.06814434
97	0xbdbff1fd	-0.093723275
98	0x3c6036d5	0.013684948
99	0xbd37c0ad	-0.044861484
100	0xbe1d249c	-0.15345997
101	0xbdd4d867	-0.10392838
102	0x3c83c16a	0.016083438
103	0xbdb93db5	-0.09044973
104	0xbd9b6973	-0.07588472
105	0xbd09052c	-0.033452198
106	0x3d17ca54	0.03705819
107	0xbd13383c	-0.0359423
108	0xbdfc2bc8	-0.12313038
109	0xbd8c320d	-0.06845484
110	0xbcf5df73	-0.030013775
111	0xbd2f541f	-0.042804834
112	0xbca7412d	-0.02041682
113	0x3d046950	0.032326996
114	0x3d6bfd8e	0.057614855
115	0x3d89f8ac	0.067368835
116	0x3be45584	0.006968202
117	0x3d140c7e	0.036144726
118	0x3b046aaa	0.0020205178
119	0x3b641b63	0.0034806363
120	0x3e3974e4	0.18110996
121	0x3dfeb7af	0.124373786
122	0x3e0f180f	0.13974021
123	0x3e04a738	0.12954414
124	0x3dda0239	0.10644955
125	0x3e1b37ff	0.1515808
126	0x3e44165b	0.19149153
127	0x3e29835f	0.1655402
128	0xbd84d288	-0.06485468
129	0xbc204bd5	-0.009783705
130	0xbcfa4aa7	-0.030553175
131	0x3d6e6260	0.058199286
132	0xbd813815	-0.06309525
133	0x3dd039e6	0.10167293
134	0x3e6e9f84	0.23303038
135	0xbd108232	-0.035280414
136	0xbe4c1627	-0.19930325
137	0x3c6f741c	0.014615085
138	0xbd87f59e	-0.06638645
139	0x3c222fb6	0.0098990705
140	0xbd88777c	-0.06663415
141	0xbd5e341b	-0.05424891
142	0x3dd85dad	0.10564742
143	0xbdb396c7	-0.08768993
144	0xbda1821d	-0.07886145
145	0x3dbebd6f	0.09313475
146	0x3cb3353b	0.021875968
147	0xbd8da3af	-0.06915986
148	0xbdd2ceac	-0.10293326
149	0xbe04f563	-0.12984233
150	0xbd3baf4b	-0.04582147
151	0xbbed65cf	-0.0072448025
152	0xbd5cc7bb	-0.053901415
153	0xbd053342	-0.032519586
154	0x3d4f5f11	0.05062777
155	0xbdc5107c	-0.09622285
156	0xbd93a53d	-0.07209251
157	0xbd816b7b	-0.063193284
158	0xbb36cd5f	-0.0027893407
159	0xbde7589d	-0.112961985
160	0xbda980dd	-0.08276532
161	0xbd572096	-0.05252131
162	0xbd34f431	-0.04417819
163	0xbdb6bac8	-0.089223444
164	0xbd58a554	-0.052892044
165	0xbd3ef890	-0.046623766
166	0x3d255cba	0.040371634
167	0xbc5f5aa6	-0.013632452
168	0xbcfede73	-0.031111931
169	0x3d232086	0.03982594
170	0x3c9fec3b	0.019521823
171	0x3c9cb780	0.019130468
172	0xbe1976f8	-0.14986789
173	0xbd865e07	-0.06560903
174	0x3b124669	0.00223198
175	0xbcf8fc2e	-0.030393686
176	0x3d042b05	0.03226759
177	0x3d8cc4fa	0.06873508
178	0xbd0e7a95	-0.034784872
179	0x3daac549	0.083384104
180	0xbcf71419	-0.03016095
181	0xbc416ec3	-0.011806193
182	0x3cfddf1d	0.030990178
183	0xbaab1485	-0.001305238
184	0x3e3c8dc5	0.18413456
185	0x3ddaea79	0.10689253
186	0x3e442a26	0.19156703
187	0x3e3edf83	0.1863995
188	0x3e1045c8	0.1408912
189	0x3df503af	0.11963593
190	0x3e224775	0.15847571
191	0x3de7a01d	0.11309836
192	0xbdaaac7e	-0.083336815
193	0x3cae6586	0.021288645
194	0xbd84aa66	-0.064778134
195	0xbc0f8303	-0.008759263
196	0xbdbcd4b9	-0.09220261
197	0x3c0f6477	0.00875198
198	0x3e49bf25	0.19701822
199	0x3d8fabcc	0.070151895
200	0xbe50852b	-0.203633
201	0xbc633527	-0.013867653
202	0xbd85d480	-0.06534672
203	0xbc0b6551	-0.008508042
204	0xbd3ca750	-0.046058
205	0xbd06f8a2	-0.03295196
206	0x3d85c32d	0.065313675
207	0xbdba9780	-0.091109276
208	0xbc2e1895	-0.010625978
209	0x3d0a76b1	0.0338046
210	0x3ba236cc	0.00495038
211	0xbe1033fa	-0.14082327
212	0xbd93bc58	-0.07213658
213	0xbdbf7965	-0.09349326
214	0xbd80a06b	-0.06280597
215	0xbbfe46fb	-0.0077599264
216	0xbc14b4a3	-0.00907627
217	0x3d021bbd	0.031764735
218	0xbc3f4de3	-0.0116762845
219	0xbd22d8d4	-0.039757565
220	0xbd7cc5a3	-0.06171192
221	0xbdcba98d	-0.099444486
222	0xbc199de4	-0.009376023
223	0xbe01e7c4	-0.12686068
224	0xbe09a0bc	-0.13440222
225	0x3d111a8e	0.035425715
226	0xbb44bc3d	-0.0030019425
227	0xbdad8851	-0.08473266
228	0xbdeaf1c5	-0.11471895
229	0xbcb1ea0e	-0.021718051
230	0x3caf4908	0.021397129
231	0xbddccb61	-0.10780979
232	0xbd830c77	-0.06398862
233	0x3c8e31cc	0.01735773
234	0x3cf9cdfb	0.030493727
235	0x3c5c7afd	0.013457057
236	0xbd98bdee	-0.07458101
237	0xbcccd479	-0.025003659
238	0xbd18c5d3	-0.037298035
239	0xbdb803c3	-0.089850925
240	0x3d563e7a	0.052305676
241	0x3d637fe7	0.0555419
242	0x3ca84c2f	0.02054414
243	0xbcd4e9d1	-0.025990399
244	0x3cd54802	0.026035313
245	0x3bf830c8	0.0075741746
246	0x3d8c09de	0.068378195
247	0xbaa388df	-0.0012476704
248	0x3e364aba	0.17801943
249	0x3dd1d063	0.10244825
250	0x3e1e0124	0.15430123
251	0x3dd66d88	0.1047011
252	0x3e4f1798	0.20223844
253	0x3e1678e2	0.1469455
254	0x3dea1d31	0.11431349
255	0x3e3ffa1a	0.1874775

conv1.bias f4 [16]
0	0x3e2b807c	0.16748232
1	0xb86f6a66	-5.708113e-05
2	0xbccde18e	-0.025131967
3	0xbd4d28d9	-0.050087783
4	0xb91207a3	-0.0001392649
5	0xbb3bbe32	-0.00286473
6	0x3d0a51df	0.033769485
7	0xbdba8aa6	-0.09108476
8	0xba7fea4c	-0.0009762391
9	0xbcafd938	-0.021465883
10	0xb9a8f601	-0.00032226744
11	0xb8994925	-7.309233e-05
12	0x3e330053	0.17480592
13	0xb783e507	-1.5723066e-05
14	0xbcd58daf	-0.026068537
15	0xbcb4afe8	-0.022056535

conv2.weight f4 [32, 16, 4, 4]
0	0x3d3175a8	0.043325096
1	0x3d42b0f2	0.04753203
2	0xbb96cd43	-0.004602106
3	0xbd5a55e3	-0.053304564
4	0x3de3f4f1	0.11130703
5	0x3dc879d8	0.09788865
6	0x3ccea11c	0.025223307
7	0xbdb117ff	-0.08647155
8	0x3d3237af	0.043510135
9	0x3dabe64e	0.083935365
10	0x3dd78e98	0.105252445
11	0x3a48189e	0.0007633063
12	0xbce6840c	-0.028139137
13	0xbd834aa8	-0.06410724
14	0xbddaf8cb	-0.10691985
15	0xbd5ea7a9	-0.054359112
16	0xbd04de83	-0.032438766
17	0x3d8064ee	0.06269251
18	0xbda19320	-0.0788939
19	0x3de00b13	0.10939612
20	0x3b4a6ca3	0.0030887506
21	0xbd357523	-0.044301163
22	0x3d065508	0.032795936
23	0xbd0e519f	-0.03474581
24	0xbc93e635	-0.018054107
25	0x3d265fdf	0.040618774
26	0xbd15e667	-0.036596682
27	0xbda88a40	-0.08229494
28	0xbd28650f	-0.041112002
29	0xbd0e2c69	-0.03471032
30	0xbc3a4d52	-0.011370974
31	0xbd0c5e67	-0.034269717
32	0x3df35d0f	0.11882984
33	0xbcad5658	-0.021159336
34	0x3de7ae2a	0.11312516
35	0x3d40e3d0	0.04709226
36	0xbc83d9ad	-0.016095007
37	0xbd99083e	-0.07472275
38	0xbcd40c75	-0.025884846
39	0xbdad2840	-0.08454943
40	0xbd9227a3	-0.07136466
41	0xbba517c0	-0.0050382316
42	0xbcf82656	-0.030291717
43	0xbe44a4c2	-0.19203475
44	0x3cc9bbd8	0.024625704
45	0x3d033e6b	0.03204195
46	0x3bad8376	0.0052952124
47	0xbe2f7e3d	-0.17138
48	0x3d00aa33	0.031412315
49	0xbd669490	-0.056294024
50	0x3b8c1916	0.0042754514
51	0xbdd9fdb0	-0.1064409
52	0x3cdd4c8b	0.027014038
53	0xbb2f6234	-0.0026761414
54	0x3d1340a1	0.035950307
55	0xbe3ae126	-0.1824995
56	0x3c5a7a4f	0.013334825
57	0xbd317306	-0.043322586
58	0x3d352396	0.04422339
59	0xbe4f5e6d	-0.20250864
60	0xbd0e0745	-0.0346749
61	0x3cce5d02	0.025190834
62	0xbc4f1942	-0.012640299
63	0xbdf99ae7	-0.121877484
64	0xbd255c96	-0.0403715
65	0x3da7aeaf	0.08187615
66	0x3d384ff9	0.044998143
67	0xbd8213ab	-0.063514076
68	0x3e08a5d5	0.1334451
69	0x3d12f7c1	0.035880808
70	0x3d75a32d	0.05997007
71	0x3c893abe	0.016751643
72	0xbd2c7529	-0.04210392
73	0x3c367559	0.011136376
74	0x3b38bdd3	0.0028189316
75	0xbda83886	-0.08213906
76	0xbb8762c3	-0.0041316464
77	0xbd07ad2b	-0.03312413
78	0xbc585884	-0.0132046975
79	0x3d5beb20	0.05369103
80	0x3daaf66d	0.08347783
81	0x3d9c3320	0.07626939
82	0x3c8158f6	0.01578949
83	0xbcd816c1	-0.026378037
84	0x3cb073bc	0.021539561
85	0x3c1c34b3	0.009534049
86	0xbcab17e3	-0.020885414
87	0xbda2b91c	-0.07945463
88	0x3d3126bb	0.043249827
89	0x3db9f326	0.0907958
90	0x3da841cf	0.08215677
91	0x3d78b568	0.060719877
92	0xbc365f99	-0.011131191
93	0xbc67d4e4	-0.014149878
94	0xbdaae913	-0.08345237
95	0xbdb86897	-0.09004324
96	0x3d581c10	0.052761137
97	0x3b7f56c7	0.0038961635
98	0x3dae37fc	0.08506772
99	0x3d234759	0.039862964
100	0x3d3c2f1a	0.045943357
101	0x3d8ccaab	0.06874593
102	0xbc4b6bad	-0.012415809
103	0xbd2fd042	-0.04292322
104	0xbd11e19c	-0.03561555
105	0x3ccc0707	0.024905695
106	0xbd4c665f	-0.049902316
107	0xbd305297	-0.043047514
108	0x3c81a526	0.01582582
109	0x3bba9562	0.0056940774
110	0xbd3abb97	-0.045589056
111	0xbcd9c26a	-0.026581962
112	0x3e08281f	0.13296555
113	0x3d9241e4	0.07141474
114	0x3d3af41d	0.04564296
115	0xbd032b39	-0.032023642
116	0xbd50f8aa	-0.051018395
117	0xbc46da80	-0.012137055
118	0xbd3038a4	-0.043022767
119	0x3e393027	0.18084775
120	0xbdb825e0	-0.08991599
121	0xbc4298de	-0.011877267
122	0xbd8472bd	-0.06467197
123	0xbd4a39f3	-0.04937167
124	0xbd6b505e	-0.05744969
125	0xbc99189c	-0.018688492
126	0x3c139f4c	0.009010147
127	0xbdd3e35b	-0.10346099
128	0xbb8230b5	-0.0039730915
129	0x3c9832a3	0.018578833
130	0x3c503bd2	0.012709575
131	0x3ddda0aa	0.1082166
132	0xbc05318b	-0.008129488
133	0x3d4691d4	0.048478916
134	0xbd68c859	-0.05683169
135	0x3c9905d8	0.018679544
136	0xbd26a34e	-0.040683083
137	0xbcdfde7c	-0.027327769
138	0x3c1d3828	0.009595908
139	0xbd86a19b	-0.065737925
140	0x3cf62ff6	0.030052166
141	0xbc8d9e74	-0.01728747
142	0x3d8b3d56	0.06798808
143	0x3d2a8638	0.041631907
144	0x3d6b9ced	0.057522703
145	0xbc768585	-0.015046482
146	0x3d54bbca	0.051936902
147	0x3d48be17	0.04900941
148	0xbc25e7af	-0.010126038
149	0x3d671a1b	0.05642138
150	0xbd02572d	-0.03182142
151	0xbce327fc	-0.027729027
152	0x3d209b8e	0.03921085
153	0x3d05bc4b	0.032650273
154	0x3c10d983	0.008840921
155	0x3c87b5ef	0.016566245
156	0x3baf8336	0.0053562177
157	0x3cc3cc0f	0.023901014
158	0x3d546ebe	0.051863424
159	0x3c6e2505	0.014535193
160	0x3d25d71c	0.040488347
161	0x3d3ffc6c	0.046871588
162	0x3cb9ebab	0.022695383
163	0x3d2faccf	0.042889412
164	0x3cc54e43	0.02408517
165	0x3ce7192b	0.028210243
166	0x3d085c1e	0.033290975
167	0xbdc1bb9f	-0.09459614
168	0xbd45a24e	-0.04825049
169	0xbcf8e12b	-0.030380806
170	0xbd1c49af	-0.038156208
171	0xb9899f51	-0.00026249376
172	0x3cefeb04	0.029286869
173	0x3d855a72	0.06511392
174	0xbc6c0788	-0.014406092
175	0x3d1c4ca1	0.038159017
176	0x3d8fded3	0.07024922
177	0xbcdb9997	-0.026806636
178	0x3cca040e	0.024660137
179	0xbd9ff214	-0.078098446
180	0x3cfe7c22	0.03106505
181	0x3d8b5704	0.06803706
182	0x3c602cc8	0.013682552
183	0xbdb0a107	-0.086244635
184	0x3cf563d0	0.02995482
185	0xbd4e6266	-0.05038681
186	0x3d04f46c	0.03245966
187	0xbe0594df	-0.13045071
188	0xbcd3c0d8	-0.025848791
189	0xbda00fa5	-0.07815484
190	0x3bddd513	0.006769785
191	0xbe0608f5	-0.13089354
192	0xbd939280	-0.07205677
193	0xbd4bcc22	-0.049755223
194	0x3d1196a4	0.035544053
195	0xbc75d27e	-0.0150037985
196	0x3db4577a	0.08805747
197	0x3c41b09b	0.011821891
198	0xbcf6a2a4	-0.03010685
199	0xbd1ec910	-0.038765967
200	0xbb8e1d40	-0.004336983
201	0x3c1895ac	0.009313028
202	0x3ca15c80	0.019697428
203	0xbcaabdcd	-0.020842457
204	0xbd8d5140	-0.06900263
205	0xbb816da5	-0.003949838
206	0xbc3c0072	-0.011474716
207	0xbd8d9543	-0.06913235
208	0x3d84eed6	0.06490867
209	0x3a6e9723	0.00091015006
210	0x3d0cb693	0.034353804
211	0xbc7247e6	-0.01478765
212	0x3ddc8c13	0.107689045
213	0xbd6bd125	-0.057572503
214	0xbc7195e1	-0.014745207
215	0xbc0ffbed	-0.008788091
216	0x3ce29107	0.027657045
217	0xbd092152	-0.033479042
218	0xbcf38ced	-0.029730285
219	0x3d651224	0.055925503
220	0x3d555655	0.052084286
221	0x3bf024e4	0.0073286165
222	0xbd6be549	-0.05759171
223	0x3b5f0b25	0.0034033742
224	0xbe352e5e	-0.17693469
225	0x3ca78f92	0.020454202
226	0xbd4dd529	-0.050252113
227	0xbe71619e	-0.23572394
228	0xbbff8d2f	-0.007798813
229	0x3cc04fff	0.023475645
230	0x3bb26051	0.0054436107
231	0xbda2e489	-0.07953746
232	0xbd4f3e3a	-0.050596453
233	0xbcbb3b1e	-0.022855338
234	0xbd907575	-0.07053653
235	0xbd9d39c4	-0.076770335
236	0xbd681c64	-0.0566677
237	0x3d1a3bf5	0.037654836
238	0xbc9d5bd2	-0.019208822
239	0xbd900284	-0.0703173
240	0x3daabbb2	0.08336581
241	0x3d287128	0.04112354
242	0x3d453ed5	0.048155624
243	0xbd2bde35	-0.04195996
244	0x3dbaea12	0.091266766
245	0x3dc632be	0.09677647
246	0x3db3ba74	0.087757975
247	0x3c3bd7cf	0.011465027
248	0xbd02e540	-0.03195691
249	0x3d2d0b6d	0.042247225
250	0x3cef5391	0.029214652
251	0x3bcf0a5b	0.006318373
252	0x3bf382a3	0.0074313446
253	0x3d08effb	0.03343199
254	0x3d5b4b13	0.053538393
255	0xbd91eef8	-0.07125658

conv2.bias f4 [32]
0	0xbce7b04d	-0.028282309
1	0xbdfa82ea	-0.12232001
2	0xbd1a74f7	-0.037709203
3	0xbc142711	-0.009042517
4	0xbc96c680	-0.018405199
5	0x3d5cca20	0.0539037
6	0xbd09b6ad	-0.03362148
7	0x3df6d7be	0.12052868
8	0xbd237081	-0.039902214
9	0xbe265672	-0.16243914
10	0x3eab4cfc	0.33457172
11	0x3d9d4222	0.076786295
12	0x3ea69012	0.32531792
13	0xbcc8f4c9	-0.024530785
14	0xbbab466d	-0.0052269013
15	0x3f26246e	0.6489934
16	0x3d891a2b	0.06694444
17	0xbb247609	-0.0025094768
18	0x3e9e745c	0.3094815
19	0x3e8326ae	0.25615448
20	0x3f179ed5	0.59226733
21	0xbcf82b20	-0.030294001
22	0xbc1683ec	-0.009186726
23	0xbcf0cf62	-0.029395763
24	0xbcf839ee	-0.03030106
25	0xbdb79522	-0.08963992
26	0xbc60a719	-0.013711714
27	0xbcdd9c80	-0.027052164
28	0x3f0f69ca	0.56020796
29	0xbd23c154	-0.039979294
30	0xbd9504ea	-0.07276328
31	0x3c477b97	0.012175462

conv3.weight f4 [32, 32, 3, 3]
0	0x3d08e8e5	0.03342523
1	0xbd0d8120	-0.03454697
2	0xbd81b413	-0.063331746
3	0x3d1268a2	0.035744317
4	0x3d2b4ba7	0.041820195
5	0xbcaec01c	-0.02133184
6	0x3cd12227	0.02552898
7	0x3d1637f2	0.036674447
8	0xbd76048b	-0.060062926
9	0xbd816fee	-0.06320177
10	0xbd15de1c	-0.036588773
11	0xbdbe0d6d	-0.092799045
12	0x3d2ee422	0.042698033
13	0x3c2d6f99	0.010585689
14	0xbd6b5e00	-0.057462692
15	0xbd27009f	-0.040772077
16	0x3bf89005	0.007585528
17	0x3d86cd75	0.065821566
18	0xba1e7127	-0.00060440827
19	0x3c8b0447	0.016969813
20	0x3d32ca4e	0.043649964
21	0x3db17882	0.08665563
22	0x3ce05370	0.027383536
23	0x3c93b4a4	0.018030472
24	0x3d54a81d	0.051918138
25	0x3c744a4e	0.014910294
26	0xbc32c1b1	-0.010910437
27	0xbbb9b525	-0.005667346
28	0x3c5128a4	0.012766037
29	0xbc8057ab	-0.015666803
30	0x3d05c8db	0.032662254
31	0xbd324b36	-0.043528758
32	0x3c9fed5c	0.019522361
33	0x3a6aa901	0.0008951575
34	0xbc9f360a	-0.019434948
35	0x3dabbc60	0.08385539
36	0x3aff3643	0.0019471127
37	0xbd13c2c8	-0.03607443
38	0x3c113b92	0.0088643
39	0xbca67b01	-0.020322325
40	0xbc244546	-0.010026282
41	0xbcab146e	-0.020883765
42	0xbcf61449	-0.03003897
43	0x3cabf503	0.020990854
44	0xbd59b9fa	-0.053155877
45	0x3d292813	0.041297983
46	0x3ddb04d4	0.1069428
47	0xbd2f5fcd	-0.042815972
48	0x3d31edb2	0.043439575
49	0xbc958050	-0.01824966
50	0xbccbcc30	-0.024877638
51	0x3bdddea0	0.0067709237
52	0x3d09efe1	0.033676032
53	0x3cdd4c8c	0.02701404
54	0x3bea2994	0.00714607
55	0xbc59a42d	-0.013283771
56	0x3c509bbb	0.012732442
57	0xbcc0160b	-0.02344801
58	0xbac927b1	-0.0015346912
59	0x3d5f3b02	0.054499634
60	0xbd2cfbe5	-0.042232413
61	0x3cf58b4d	0.02997365
62	0xbbe8827b	-0.0070956326
63	0x3d70f9a3	0.058831822
64	0x3c380926	0.01123265
65	0x3c942fba	0.018089164
66	0xbd292c7d	-0.041302193
67	0x3cc859c9	0.024456875
68	0x3bffe4bf	0.007809251
69	0x3c611332	0.013737487
70	0xb9f7839f	-0.00047209577
71	0x3cf96f24	0.030448504
72	0x3ec09362	0.37612444
73	0xbd3e768a	-0.046499766
74	0x3e6837cb	0.22677533
75	0xbd98b455	-0.074562706
76	0xbcf10626	-0.029421877
77	0xbd15b5c9	-0.036550317
78	0xbd4255a6	-0.047444962
79	0xbce6a14d	-0.028153086
80	0xbcfc1e76	-0.030776244
81	0xbcec885c	-0.028873615
82	0xbc797264	-0.015225027
83	0xbe35a922	-0.177403
84	0xbe00ff98	-0.12597501
85	0xbe51a301	-0.20472337
86	0x3c2a725b	0.010403241
87	0xbda279ba	-0.07933374
88	0xbd844421	-0.06458307
89	0xbd11e282	-0.035616405
90	0xbcadbf13	-0.021209275
91	0xbd1df96a	-0.038567938
92	0x3b807d7c	0.003921209
93	0x3d921045	0.071320094
94	0x3c549e32	0.01297717
95	0xbcdb9d33	-0.026808357
96	0x3d99bcf9	0.07506747
97	0x3d399d1b	0.045315843
98	0x3d107668	0.03526917
99	0x39f38621	0.00046448506
100	0xbcb9e587	-0.022692455
101	0x3c80f5a8	0.015742138
102	0x3d9375aa	0.07200177
103	0x3bc1f6e5	0.0059193247
104	0x3b9778ca	0.0046225535
105	0x3d890032	0.066894904
106	0x3dbe4d71	0.092921145
107	0xbadb8032	-0.0016746579
108	0x3daed7d4	0.0853726
109	0x3d4d16d5	0.050070602
110	0x3d43394a	0.047662057
111	0x3b121f2f	0.002229642
112	0xbd1008ed	-0.035164762
113	0x3d796766	0.060889624
114	0x3d8b0cd6	0.06789558
115	0x3ddd1ef9	0.10796923
116	0x3d759855	0.05995973
117	0x3ddefd4e	0.10888158
118	0xbdad0d61	-0.084498174
119	0xbc6404ae	-0.013917131
120	0x3c87f740	0.01659739
121	0x3d03911a	0.0321208
122	0x3c923d70	0.017851561
123	0x3c603118	0.01368358
124	0x3d8ee022	0.06976344
125	0x3dab5f0c	0.08367738
126	0xbe0af4dc	-0.13569969
127	0x3d7f3139	0.0623028
128	0xbe06fa41	-0.13181402
129	0x3c840a6e	0.016118255
130	0x3dd41199	0.10354919
131	0x3dd54f50	0.10415518
132	0xbd296b6c	-0.04136221
133	0x3d433743	0.047660124
134	0xbc3cbc81	-0.011519552
135	0x3d26ba87	0.04070523
136	0xbc6073a2	-0.013699444
137	0x3d892f17	0.06698435
138	0x3d853323	0.06503894
139	0x3dabe00f	0.08392345
140	0xbb1209a3	-0.0022283576
141	0x3de26fb3	0.11056461
142	0x3d96b22a	0.07358201
143	0x3d744f2c	0.059645817
144	0xbc9ab46a	-0.018884856
145	0xbc22e5a5	-0.009942447
146	0xbda1a264	-0.07892302
147	0xbca32939	-0.019917117
148	0xbc78aba5	-0.015177642
149	0x3d17b52a	0.037038006
150	0x3d462920	0.048379064
151	0xbcecaf61	-0.02889222
152	0x3ce3d18c	0.02780988
153	0xbd4fd14f	-0.05073672
154	0xbdf4f982	-0.11961652
155	0xbbb994d4	-0.0056634936
156	0x3bde1eb7	0.006778564
157	0x3d1d4044	0.038391367
158	0x3b90245d	0.004398866
159	0xbc8c52ec	-0.017129384
160	0x3d67da2a	0.05660454
161	0xbc7f4377	-0.01558005
162	0xbce31d2c	-0.027723871
163	0xbca2976f	-0.0198476
164	0x3c45b824	0.012067828
165	0x3d6489d4	0.055795506
166	0x3d10a936	0.035317622
167	0x3d2761cb	0.040864747
168	0x3c5b4468	0.013383009
169	0x3d5b8c5d	0.053600658
170	0x3b8456e5	0.004038679
171	0x3d3e06e7	0.0463933
172	0x3d1eb6b6	0.038748465
173	0x3c02f03a	0.007991845
174	0x3cf75e51	0.03019634
175	0x3a30f1b9	0.00067498867
176	0x3d356693	0.044287276
177	0xbcd9de30	-0.026595205
178	0x3d07a48e	0.033115916
179	0xbc513ce6	-0.012770867
180	0x3d91d827	0.07121306
181	0xbc0a0f3b	-0.008426483
182	0x3d2d4f65	0.042312045
183	0x3dc1a356	0.09454982
184	0x3bf2a0bf	0.0074044163
185	0x3bf1cd3e	0.007379203
186	0x3cffbcf8	0.031218037
187	0x3b835483	0.0040078773
188	0x3d405b6e	0.046962194
189	0xbdb4f976	-0.088366434
190	0xbd54fea7	-0.052000668
191	0xbca37697	-0.019954009
192	0xbd299eb4	-0.041411117
193	0xbd02dc08	-0.03194812
194	0xbda6346b	-0.08115467
195	0x3ca17fd1	0.019714268
196	0xbd3e8c77	-0.046520676
197	0x3d0340ee	0.032044344
198	0x3d076e67	0.033064272
199	0xbd60d69e	-0.054892175
200	0xbdc6ac84	-0.097008735
201	0xbd8c6f7b	-0.06857201
202	0x3b55ea2b	0.0032640796
203	0x3daae001	0.083435066
204	0x3cabe967	0.020985318
205	0xbcd3163c	-0.025767438
206	0xbd635727	-0.055503037
207	0xbc580eab	-0.013187091
208	0xbddfc52a	-0.10926278
209	0xbba5c78d	-0.0050591887
210	0xbcc21727	-0.02369268
211	0x3d5ec7d9	0.05438981
212	0x3a392e97	0.00070641324
213	0xbca4284c	-0.020038746
214	0xbcb6fec6	-0.022338282
215	0x3d3004e4	0.042973414
216	0xbc42dbd0	-0.011893228
217	0xbaa23c86	-0.0012377657
218	0xbcfa63a0	-0.030565083
219	0xbc8e000e	-0.01733401
220	0xbd448c08	-0.047985107
221	0xbc3a5f3e	-0.011375247
222	0x3cb49ce4	0.022047468
223	0x3cdaf8e9	0.026730018
224	0x3d843137	0.064546995
225	0xbcac0135	-0.02099667
226	0xbbdaa2e8	-0.006672252
227	0xbc5887e3	-0.013215992
228	0xbc830ff7	-0.015998824
229	0x3bbe2df9	0.00580382
230	0x3d743146	0.059617303
231	0xbcd3a401	-0.02583504
232	0xbcc2703e	-0.023735162
233	0x3d2e2f33	0.04252548
234	0xbd8920a4	-0.06695679
235	0x3a8e7822	0.0010869543
236	0xbdb4cccb	-0.08828124
237	0xbb95c511	-0.0045706113
238	0x3d6873a4	0.05675091
239	0x3d3d31e7	0.04619017
240	0x3d991d94	0.07476345
241	0x3d128b12	0.03577716
242	0x3d81195e	0.063036665
243	0x3d71b622	0.059011586
244	0x3b1c3101	0.002383292
245	0xbc61c747	-0.013780422
246	0xbcc8647a	-0.024461973
247	0x3cbc30b1	0.022972437
248	0xbd866811	-0.06562818
249	0x3d218ad0	0.039439023
250	0x3c0d584a	0.008627007
251	0xbd52ec7d	-0.051495064
252	0x3c8dfe98	0.017333314
253	0xbd102eaf	-0.03520077
254	0xbbd2e3cc	-0.006435847
255	0x3db03f31	0.08605803

conv3.bias f4 [32]
0	0x3e9af8e1	0.30268005
1	0x3ebb07d4	0.3652941
2	0x3eaabf9e	0.33349317
3	0x3edb23d2	0.42800766
4	0x3eb0b6be	0.3451442
5	0xbe2235e2	-0.15840867
6	0x3ef2cdb0	0.47422552
7	0xbc59fa4e	-0.013304306
8	0x3e9f1131	0.31067804
9	0x3edfb121	0.43689826
10	0x3eaecc9f	0.34140489
11	0x3ecaa9bb	0.3958262
12	0x3ea4a3eb	0.3215631
13	0x3ea3c887	0.31988928
14	0x3ee02e26	0.43785208
15	0x3e9db103	0.30799112
16	0x3ebf9b49	0.3742316
17	0x3f15d22e	0.58523834
18	0x3ebee5aa	0.37284595
19	0x3ec30031	0.38086084
20	0x3d950c62	0.072777525
21	0x3ea81ee8	0.3283608
22	0x3eb78e42	0.35850722
23	0x3eccfea9	0.4003804
24	0x3ed07229	0.40712097
25	0x3e8ef779	0.27923182
26	0xbe6abaec	-0.22922868
27	0x3edeb9b1	0.43501046
28	0x3ecb01f1	0.3964992
29	0xbd1efd40	-0.038815737
30	0x3f17d36c	0.5930698
31	0x3ebd5746	0.36980647

fc1.weight f4 [128, 1568]
0	0x3b8390e5	0.0040150755
1	0xbd6b78f8	-0.05748841
2	0xbd0cdbd2	-0.034389324
3	0x3d23a895	0.039955694
4	0x3ba3a60b	0.004994159
5	0x3da21243	0.079136394
6	0x3d1f1f3b	0.038848143
7	0x3caef228	0.021355703
8	0x3d13a883	0.036049377
9	0x3d447cbe	0.047970526
10	0x3cbf6d0d	0.02336743
11	0x3bd8cc4f	0.0066161524
12	0x3cdf00ba	0.027222026
13	0x3c0535be	0.008130489
14	0x3c9edcf3	0.019392466
15	0x3ba184c5	0.0049291574
16	0x3ca4c0c2	0.020111445
17	0x3ced6515	0.028978864
18	0x3d10bdbf	0.035337206
19	0xbbebb06a	-0.007192661
20	0x3c8a0059	0.016845869
21	0x3cbabe90	0.022795945
22	0xbca84f7e	-0.020545717
23	0xbd13bd21	-0.03606904
24	0xbc7e03da	-0.015503848
25	0x3ba21130	0.0049458966
26	0x3ac1b61c	0.0014779004
27	0x3c98fee4	0.018676229
28	0x3c9b1d4c	0.018934868
29	0x3adf36e5	0.001702991
30	0x3c86683e	0.016407128
31	0x3cd55648	0.026042119
32	0x3c41534a	0.011799643
33	0xbc333362	-0.010937544
34	0xbc82780a	-0.01592638
35	0x3b56951d	0.0032742687
36	0x3bd37983	0.0064536943
37	0xbbe65646	-0.0070293276
38	0xbbec073f	-0.0072030122
39	0xbcdc7442	-0.026910905
40	0xbc86c7d4	-0.016452707
41	0xbb2b7299	-0.0026160835
42	0xbc031794	-0.008001227
43	0x3c5eacbf	0.013590991
44	0x3c901866	0.01758976
45	0x3b909f87	0.0044135484
46	0xbcdc216e	-0.02687141
47	0x3b72100d	0.0036935837
48	0xbbf72369	-0.007542063
49	0xbcc659e1	-0.02421278
50	0xbd071c82	-0.03298617
51	0xbbe0ffcb	-0.0068664304
52	0xbcd1ef1a	-0.025626708
53	0xbd22d40b	-0.039753
54	0xbd1da418	-0.03848657
55	0xbd0c18d4	-0.034203365
56	0xbbd50e71	-0.0065019657
57	0x3c1e54a3	0.009663734
58	0x3c8e054c	0.01733651
59	0x3c7fafc9	0.015605875
60	0x3bf1461a	0.007363093
61	0xbc52f625	-0.012876068
62	0x3a7e3411	0.00096970896
63	0x3c730405	0.014832501
64	0xbcf0873e	-0.029361364
65	0xbc6e342d	-0.014538807
66	0xbc9f3a10	-0.019436866
67	0x3bef234c	0.007297909
68	0xbc0bb3d7	-0.008526764
69	0xbc98cbbc	-0.018651836
70	0xbca7eba3	-0.020498103
71	0xbc4634bc	-0.012097534
72	0xbbacad82	-0.005269707
73	0xba8e845b	-0.0010873185
74	0x3cb58f88	0.022163168
75	0xbba96d7c	-0.0051705223
76	0xbd3ba821	-0.045814637
77	0xbcc617f2	-0.02418134
78	0x3c71d8ec	0.014761191
79	0xbcac38ba	-0.021023143
80	0x3bd64110	0.006538518
81	0x3ce79d4f	0.028273253
82	0x3c0c2d46	0.008555716
83	0xbb768538	-0.0037616026
84	0xbd657bef	-0.056026395
85	0xbc531de1	-0.012885542
86	0xbb3437e4	-0.0027499134
87	0xba8f32ac	-0.0010925136
88	0xbc45532a	-0.012043754
89	0xbd06fa17	-0.032953348
90	0x3ca10a0e	0.019658115
91	0xbd6d9770	-0.05800575
92	0xbc74554e	-0.014912916
93	0x3bcca9a3	0.006245808
94	0xbcf1b539	-0.029505359
95	0xbc1ac87c	-0.009447213
96	0xbc873a23	-0.016507214
97	0xbc1a6068	-0.009422399
98	0x3c7b12b9	0.015324288
99	0x3c20c25a	0.009811962
100	0xbc9bada8	-0.019003704
101	0x3cb2dee9	0.021834807
102	0x3d8e5396	0.069495365
103	0xbc749e1a	-0.0149302725
104	0xbe02a9d8	-0.12760103
105	0xbc43bf08	-0.011947401
106	0x3cacc7b1	0.021091314
107	0x3c2b0a2a	0.010439435
108	0x3ca0b120	0.01961571
109	0x3c6a1c7b	0.014289017
110	0xbb10ab2a	-0.0022074678
111	0x3ac832c3	0.0015273917
112	0x3c8076bc	0.015681617
113	0xbc9cdef2	-0.019149277
114	0xbbc50859	-0.006012958
115	0xbc3a7c16	-0.011382123
116	0xbcbc7a0f	-0.02300742
117	0xbc8f8281	-0.017518284
118	0xbba1f6ae	-0.0049427366
119	0xbc14bd2c	-0.009078305
120	0x3c51e97c	0.012812015
121	0x3c1e7b1a	0.009672904
122	0xbcba3706	-0.022731315
123	0xbcaab103	-0.020836359
124	0x3bbf0ebc	0.005830614
125	0x3d80f9a8	0.06297618
126	0xbc619146	-0.013767546
127	0xbc7df73c	-0.01550084
128	0xbc2e879c	-0.010652449
129	0xbb11ac50	-0.002222795
130	0xbca6a008	-0.02033998
131	0x3b2c4a0c	0.0026289253
132	0x3d7c832c	0.061648533
133	0x3c25edf1	0.01012753
134	0xbc5810f8	-0.013187639
135	0x3c7e8351	0.015534238
136	0xbc7cc560	-0.015427917
137	0x3ca02834	0.01955042
138	0x3c182736	0.009286692
139	0x3d5b83b9	0.053592417
140	0x3ca04d6d	0.01956817
141	0xbd077cbb	-0.033077937
142	0xbd116c02	-0.035503395
143	0xbd1279e3	-0.03576077
144	0xbcc24381	-0.023713829
145	0xbcb9c949	-0.022678988
146	0x3d01131b	0.03151236
147	0xbc60deec	-0.013725024
148	0xbd3598ce	-0.04433518
149	0x3b879d10	0.0041385964
150	0x3caa25cb	0.020769974
151	0x3dcdb45a	0.10044165
152	0xbd2d84db	-0.04236303
153	0x3dca0c89	0.09865672
154	0x3d1b10f0	0.03785795
155	0x3cbb453a	0.022860158
156	0xbc70e997	-0.01470413
157	0x3c8bad96	0.017050546
158	0x3be50297	0.006988834
159	0x3cdc62a6	0.026902508
160	0xbcc805eb	-0.024416884
161	0x3c9654e8	0.018351033
162	0x3bb6215e	0.005558177
163	0xbba3e422	-0.005001561
164	0x3b741a57	0.0037247145
165	0xbb649ee3	-0.0034884743
166	0x3ccac882	0.024753813
167	0xbc2c4d7a	-0.010516519
168	0xbc402b1d	-0.011729029
169	0xbc013a6d	-0.007887465
170	0x3c508ba3	0.0127286045
171	0x3bf3fc5c	0.007445855
172	0xbc1d0cd3	-0.009585577
173	0x3c04146b	0.008061509
174	0xbb0eb4d9	-0.0021775274
175	0xbc9af340	-0.018914819
176	0x3c9e341f	0.019311963
177	0x3cc7cfc6	0.024391066
178	0x3b166479	0.002294807
179	0xbc053383	-0.008129957
180	0x3c75dcfa	0.015006298
181	0xbc854e48	-0.016272679
182	0xbb54272b	-0.0032371979
183	0xbc8b2b5e	-0.016988453
184	0xbd1f5f2e	-0.03890913
185	0xbc6bc615	-0.014390488
186	0xbd22ffe9	-0.039794836
187	0xbd3d0e16	-0.04615601
188	0x3bd46130	0.006481312
189	0x3cf48da9	0.029852705
190	0x3c490528	0.012269296
191	0xbc30c60c	-0.010789406
192	0xbcd2fed2	-0.025756273
193	0xbccaa5b3	-0.024737215
194	0x3c6dea6d	0.0145212235
195	0x3bed736b	0.007246425
196	0xbc1dcbf2	-0.009631144
197	0xbc93a951	-0.018025072
198	0x3cb5a64e	0.022174027
199	0x3b90d395	0.004419754
200	0xbd89db8b	-0.067313276
201	0xbc891723	-0.016734665
202	0xbc71b27e	-0.0147520285
203	0xbce350fe	-0.027748581
204	0x3d8ca2b1	0.068669684
205	0x3d918ddd	0.071071364
206	0x3d8d29bf	0.06892728
207	0x3dafeaac	0.08589682
208	0x3d877478	0.066140115
209	0x3d6ab502	0.05730153
210	0x3bb7e760	0.005612299
211	0xbc3a9fe5	-0.011390661
212	0xbcc9ca60	-0.024632633
213	0xbcc4e41d	-0.024034554
214	0xbbc2c5ce	-0.0059439903
215	0xbac44718	-0.0014974801
216	0x3a55b382	0.0008152054
217	0xbcbb8f6a	-0.022895534
218	0x3cab7da4	0.020933934
219	0x3c9d1520	0.019175112
220	0xbbe5e2e9	-0.007015575
221	0x3bee2f49	0.0072688204
222	0xbc9979f1	-0.018734904
223	0x3beb180f	0.007174499
224	0xbc56e522	-0.013116153
225	0x3c6f3e89	0.014602312
226	0x3c7fc87e	0.015611766
227	0x3c783d13	0.01515128
228	0xbce3fa38	-0.027829275
229	0xbcea5e04	-0.028609283
230	0x3caa346b	0.020776948
231	0xbb797abf	-0.0038067547
232	0x3b9eb8a2	0.0048437873
233	0x3c8ac5ec	0.01694008
234	0x3ca1ebe2	0.019765798
235	0x3b1bf7e7	0.0023798884
236	0x3cbc0320	0.022950709
237	0x3d1589b4	0.036508277
238	0xbc77b1ee	-0.015118105
239	0x3be409a9	0.0069591594
240	0x3c9f3e5c	0.019438915
241	0x3caa4191	0.020783218
242	0x3bc0db90	0.005885549
243	0x3c80d9a1	0.015728774
244	0xbb82734a	-0.0039810287
245	0x3d349cf9	0.044095013
246	0xbd28db62	-0.041224845
247	0xbd2d384f	-0.04229003
248	0xbd68b5dc	-0.05681406
249	0x3d182330	0.037142932
250	0x3cd8e328	0.026475504
251	0xbd9b4049	-0.07580621
252	0x3bccb2d0	0.006246902
253	0x3d507bed	0.050899435
254	0x3d880572	0.066416636
255	0x3d9d56c5	0.076825656

fc1.bias f4 [128]
0	0xbb935187	-0.004495803
1	0x3c0d3f5f	0.008621066
2	0x3cadc055	0.021209875
3	0xbc213dbd	-0.00984138
4	0xbc8ae22d	-0.016953552
5	0xbcadd1b6	-0.021218162
6	0xbd9c9071	-0.076447375
7	0x3bd326fa	0.0064438554
8	0xbbdf1f19	-0.006809127
9	0xbc827a63	-0.0159275
10	0x3c8413f3	0.016122794
11	0x3be117c5	0.0068692886
12	0xbc7c10e3	-0.0153848855
13	0xbbab1ca9	-0.0052219224
14	0xbc0b812f	-0.0085146865
15	0xbc7e0c9e	-0.015505938
16	0xbcfca19e	-0.030838784
17	0x3b2cd56b	0.0026372324
18	0xbbc01fd8	-0.005863171
19	0xbc7c1aff	-0.015387296
20	0xbddebc75	-0.10875789
21	0x3c08a370	0.008339748
22	0xbc02af16	-0.007976314
23	0xbc65b342	-0.014019789
24	0xbf52b1cb	-0.8230254
25	0xbec6b9b6	-0.3881356
26	0xbca8686e	-0.020557608
27	0xbcb8f7e1	-0.022579135
28	0x3b0af4c2	0.0021203016
29	0x3c3b5042	0.011432709
30	0x3c955171	0.01822731
31	0xba3b2f68	-0.0007140548
32	0xbb9b18c8	-0.0047331788
33	0xbcbefcd7	-0.023313923
34	0xbc03eca2	-0.008052023
35	0xb8e66eca	-0.00010987891
36	0x3c6854f9	0.014180415
37	0xbe11d2ce	-0.14240572
38	0x3ccf41c4	0.025299914
39	0x3bba968a	0.005694215
40	0x3c54bbc7	0.012984223
41	0x3c884bfd	0.016637797
42	0xbd1b8a51	-0.037973706
43	0xbd1399dd	-0.036035407
44	0xbc8a0bab	-0.016851267
45	0x3b3ad3fc	0.00285077
46	0xbbddc99a	-0.0067684175
47	0xbbe8c545	-0.0071035945
48	0xbce8fef4	-0.028441884
49	0xbc978437	-0.018495662
50	0x3af04dcf	0.0018333736
51	0x3b15cc56	0.002285739
52	0xba39c9ed	-0.0007087279
53	0xbc7559d3	-0.014975029
54	0xbc35423d	-0.011063156
55	0xbc8aec98	-0.01695852
56	0xbc9bd3c8	-0.019021884
57	0xbb837b88	-0.004012529
58	0xbd524f56	-0.051345192
59	0x3c6aaf35	0.014323999
60	0xbcb193fa	-0.021677006
61	0xbca520c1	-0.02015722
62	0xbc9ef4bb	-0.019403806
63	0xbcefa21a	-0.0292521
64	0x3c27090f	0.010195031
65	0xbc422773	-0.011850226
66	0xbcab7463	-0.020929521
67	0xbd4a6afb	-0.04941843
68	0x3b375746	0.0027975603
69	0xbc4de4bd	-0.0125667425
70	0xbcad2d32	-0.021139715
71	0x3c3537f9	0.011060708
72	0x3c3ba451	0.01145275
73	0xba961e05	-0.0011453038
74	0xbbefdf6a	-0.007320334
75	0xbcc718eb	-0.024303874
76	0xbc091ed1	-0.008369164
77	0xbcd555e1	-0.026041927
78	0x387976f3	5.9477006e-05
79	0xbab37627	-0.0013691828
80	0xbcb0efa1	-0.021598639
81	0x39e2e5a4	0.00043277175
82	0x3b0e5294	0.00217167
83	0xbb811e6f	-0.0039403955
84	0xbd0288f4	-0.03186889
85	0xbc845788	-0.01615502
86	0xbc26fc16	-0.010191938
87	0xbca4bdc8	-0.020110026
88	0x3be9d312	0.0071357572
89	0xbb6dc846	-0.0036282702
90	0x3bb5b3ce	0.005545116
91	0xbb561144	-0.00326641
92	0x3c904600	0.017611504
93	0xbc5dc8af	-0.013536616
94	0xbc08fcba	-0.008361036
95	0xbd0eb243	-0.034837972
96	0x3c5ad36d	0.013356072
97	0x3c8eb3fc	0.017419808
98	0x3ba2963e	0.004961758
99	0xbb1ecb08	-0.0024229903
100	0xbb9b1035	-0.0047321566
101	0xbbffce47	-0.0078065726
102	0xbcf0309a	-0.02932005
103	0xbbc350cd	-0.00596056
104	0xbc8479c2	-0.01617134
105	0xbc70cb9f	-0.014696985
106	0x3aee5cd4	0.0018185624
107	0xbc9883d5	-0.01861755
108	0xbcec3d8e	-0.028837945
109	0x391898a3	0.00014552711
110	0x3b8095ce	0.003924108
111	0x3c85539a	0.016275216
112	0x3c47cc14	0.012194652
113	0xbc8695ac	-0.016428791
114	0x3ad2e1c5	0.0016089013
115	0x3c0f7e22	0.0087581
116	0x3c999078	0.018745646
117	0x3c5ce30c	0.013481867
118	0x3c9b3f28	0.018951014
119	0xba0c4482	-0.00053507846
120	0xbc5b2a44	-0.013376776
121	0xb98ad942	-0.0002648328
122	0xbc97eda3	-0.018545931
123	0xbc224073	-0.009903061
124	0xbd14bdd1	-0.036313836
125	0xbcaea96c	-0.021321021
126	0xbe94ba06	-0.29048175
127	0xbc92cb3c	-0.017919175

fc2.weight f4 [4, 128]
0	0x3cb2c4db	0.021822384
1	0xbd92b649	-0.071636744
2	0xbcc7db0d	-0.024396444
3	0xbd64ce61	-0.05586088
4	0x3d067a5c	0.032831535
5	0xbd149490	-0.036274493
6	0x3d12015d	0.03564583
7	0xbd2e7f6a	-0.04260198
8	0xbd4fc3b7	-0.050723758
9	0xbc384dba	-0.011249
10	0x3bff5275	0.007791812
11	0x3d04f5cc	0.032460973
12	0x3b4521d0	0.0030079968
13	0x3d996d6e	0.07491575
14	0x3ce92ac8	0.028462783
15	0x3c9e9b3d	0.019361133
16	0x3cd34232	0.0257884
17	0x3ccf2dd5	0.02529041
18	0xbd984d11	-0.07436574
19	0x3d036c88	0.032085925
20	0x3e0577ce	0.13033983
21	0xbbc93c0a	-0.0061411904
22	0xbdb8bf82	-0.09020902
23	0xbd0e4dc1	-0.03474212
24	0x3e85e380	0.2615013
25	0x3e853cd9	0.26022986
26	0xbd10b822	-0.035331853
27	0x3a0b1618	0.00053057214
28	0xbbe4a205	-0.006977322
29	0xbcdf0c7c	-0.027227633
30	0xbd34a486	-0.044102214
31	0x3c6eb04d	0.014568401
32	0x3da68e91	0.08132661
33	0xbd42273b	-0.047400694
34	0x3d047188	0.032334834
35	0xbc64a8ce	-0.013956262
36	0xbb46d04a	-0.0030336552
37	0x3d83cb89	0.064353056
38	0x3d3c557e	0.04597997
39	0x3b735705	0.0037130725
40	0xbceb8b56	-0.028752964
41	0xbca8bca3	-0.020597761
42	0x3ca9cef9	0.020728575
43	0x3c9a5069	0.01883717
44	0xbd852950	-0.0650202
45	0xbd1a30cd	-0.037644196
46	0x3d626fe1	0.055282477
47	0x3ccb5898	0.024822518
48	0x3d4a26ff	0.049353596
49	0xbd07b809	-0.033134494
50	0x3cc3bd5f	0.02389401
51	0x3d68fcc0	0.056881666
52	0x3a8e00e0	0.0010834001
53	0x3d694267	0.05694809
54	0xbd15e78b	-0.03659777
55	0xbd36898e	-0.044564776
56	0x3d4642e8	0.04840365
57	0x3c84f96f	0.01623222
58	0x3cbc837b	0.023011914
59	0x3d583ce4	0.052792445
60	0xbd3b60d2	-0.045746632
61	0x3d5ffc56	0.054684006
62	0xbc7a424a	-0.015274594
63	0x3c6a9700	0.014318228
64	0xbc4c8fbb	-0.01248544
65	0xbccb76b6	-0.02483688
66	0x3d114dcc	0.035474584
67	0x3c9ed935	0.019390682
68	0x3d1a4af4	0.037669137
69	0x3da69090	0.08133042
70	0xbc48aca0	-0.012248188
71	0x3d2c92a1	0.042132024
72	0xbd185563	-0.037190806
73	0xbd48558b	-0.048909705
74	0xbd841f38	-0.06451267
75	0xbd306c2e	-0.04307192
76	0x3ca0cf74	0.019630171
77	0xbd78c03d	-0.060730208
78	0xbcbad533	-0.02280674
79	0x3d0b60c9	0.03402785
80	0x3b9bc5a4	0.004753785
81	0xbc5e0741	-0.013551534
82	0xbd14dc07	-0.036342647
83	0xbcae2d05	-0.021261701
84	0x3cfb8b01	0.03070593
85	0x3dab9ac3	0.08379128
86	0xb8cb9761	-9.707991e-05
87	0xbd4455ad	-0.04793327
88	0x3c1b1874	0.009466279
89	0x3cd8c9b2	0.026463363
90	0xbd590634	-0.05298443
91	0xbc7b273d	-0.015329179
92	0xbcb70167	-0.022339536
93	0x3c2a9855	0.010412295
94	0x3cb1ae12	0.021689449
95	0xbb93ae37	-0.004506852
96	0xbce6d045	-0.028175483
97	0x3b568df9	0.003273843
98	0xbd224937	-0.039620604
99	0x3c9a6f98	0.01885204
100	0x3cb16e4f	0.021659045
101	0x3d181612	0.037130423
102	0xbc77c14c	-0.015121769
103	0x3cb63224	0.022240706
104	0x3cccd4b3	0.025003767
105	0xbd7f5879	-0.062340233
106	0x3ce30081	0.027710201
107	0x3ce5a74a	0.028033871
108	0x3d09a163	0.033601176
109	0x3c44eca2	0.012019308
110	0x3b149f07	0.0022677795
111	0xb91e5786	-0.00015100659
112	0x3d289ac6	0.04116323
113	0xbd7550ea	-0.05989162
114	0x3d64a82d	0.055824447
115	0xbbe78c1b	-0.0070662624
116	0xbd524eb2	-0.05134458
117	0x3d27144b	0.040790837
118	0xbc0b123b	-0.008488233
119	0x3da37ca0	0.07982755
120	0x3c173bd4	0.009230573
121	0x3d9107a3	0.07081535
122	0xbbe4e5a5	-0.0069853836
123	0x3d085001	0.033279423
124	0x3cebfb8f	0.028806476
125	0x3cbc6635	0.022997955
126	0x3d6e05fa	0.05811117
127	0x3c801a30	0.015637487
128	0x3cfdf214	0.03099922
129	0xbd4a7175	-0.049424607
130	0xbb9f3e4d	-0.0048597218
131	0x3d824ebe	0.06362675
132	0xbd02fe21	-0.031980637
133	0xbd5c6246	-0.05380466
134	0x3d3939d0	0.04522115
135	0x3ccec34c	0.02523961
136	0xbba5c80d	-0.0050592483
137	0xbb8aa042	-0.00423053
138	0x3c929c21	0.017896714
139	0x3ce85dea	0.028365094
140	0x3d0d31b3	0.034471225
141	0x3d91a48b	0.07111462
142	0x3d0ded74	0.03465028
143	0x3d1544fb	0.036442738
144	0x3d811bc4	0.06304124
145	0x3d3953a2	0.045245774
146	0xbcd045bc	-0.025423877
147	0x3ce19980	0.027539015
148	0x3d849384	0.06473449
149	0x3d4a1d71	0.049344484
150	0xbd0d2745	-0.03446128
151	0xbcc8d1c3	-0.024514085
152	0x3e30a593	0.17250662
153	0x3e819dd4	0.25315726
154	0x3d490de1	0.0490855
155	0x3d48115a	0.048844673
156	0xba0b4fe4	-0.0005314334
157	0xbd875eda	-0.066098884
158	0x3b90ea12	0.0044224346
159	0xbd912940	-0.07087946
160	0x3c882c3c	0.016622655
161	0xbd1ec348	-0.038760453
162	0xbca43e0d	-0.02004912
163	0x3d659d03	0.05605794
164	0x3c4b471c	0.0124070905
165	0x3d924aed	0.07143197
166	0xbd6af78e	-0.057364993
167	0xbc1d9bb5	-0.009619643
168	0xbd9dc6e2	-0.077039495
169	0x3c7e0d9e	0.015506176
170	0x3d0ec399	0.034854505
171	0x3d450882	0.048103817
172	0x3d9fa913	0.0779592
173	0xbc95575a	-0.018230129
174	0xbd12b3ea	-0.03581611
175	0xbd4b56a5	-0.049643178
176	0xbc956c5b	-0.018240144
177	0xbda6f2d0	-0.081517816
178	0xbc97f9e9	-0.018551784
179	0xbd2b5a5e	-0.041834228
180	0x3d4f0dd6	0.050550304
181	0xbd40edbc	-0.04710172
182	0xbcb433d7	-0.021997375
183	0x3c97c846	0.018528115
184	0x3d812f93	0.06307902
185	0x3c3313fe	0.0109300595
186	0x3d06d2e1	0.032915954
187	0x3d222f31	0.039595786
188	0xbd976c9f	-0.07393765
189	0xbc5ae4bd	-0.0133601995
190	0xbd976b00	-0.073934555
191	0x3d1126c4	0.03543736
192	0xba6b95f7	-0.0008986885
193	0xbbc561b1	-0.0060236086
194	0x3d2733b4	0.040820792
195	0x3d496a7f	0.04917383
196	0x3cecb593	0.028895175
197	0x3adbdd01	0.0016774238
198	0x3d8d5248	0.069004595
199	0xbd0e39f5	-0.03472324
200	0x3b291bb9	0.0025803878
201	0xbd878b9b	-0.066184245
202	0xbc9ed51c	-0.019388728
203	0xbd715e50	-0.058927834
204	0x3d8b81e9	0.06811888
205	0xbd7d0540	-0.061772585
206	0xbc7a3bff	-0.015273093
207	0x3d348996	0.044076525
208	0x3c92008f	0.017822532
209	0x3d2298e8	0.039696604
210	0xbc654bad	-0.013995093
211	0xbd182334	-0.037142947
212	0x3d1cedda	0.03831277
213	0xbd3ee280	-0.046602726
214	0x3d0ae9b2	0.033914275
215	0xbd98927c	-0.07449815
216	0x3c010040	0.007873595
217	0x3d29ce57	0.041456547
218	0xbc32db59	-0.010916554
219	0xbcfee79f	-0.031116305
220	0xbac3c126	-0.0014934882
221	0xbc046850	-0.008081511
222	0x3cf259ac	0.029583775
223	0x3cd8214e	0.026383068
224	0x3c9e5373	0.019326901
225	0xbcfd6d8d	-0.030936027
226	0xbc6603c9	-0.014038988
227	0x3d1e97ed	0.038719106
228	0xbd8db9fe	-0.06920241
229	0xbd80aa9e	-0.06282543
230	0x3c2cb61b	0.010541464
231	0xba8398a7	-0.0010040001
232	0x3d95e72c	0.07319483
233	0x3aff31ee	0.0019469836
234	0x3d313965	0.043267626
235	0x3cbb4557	0.022860212
236	0x3d99e569	0.0751446
237	0xbc3d87dc	-0.011568036
238	0xbc99e1f7	-0.018784506
239	0xbc566d94	-0.013087649
240	0x3c54d3b3	0.012989926
241	0x3d281a8c	0.041040942
242	0xbd1049ab	-0.035226505
243	0xbbdbc685	-0.006707015
244	0x3cf223bb	0.029558053
245	0xbd86cca8	-0.06582004
246	0xbd34cdad	-0.04414146
247	0xbd8e138f	-0.06937324
248	0xbda1f658	-0.079083145
249	0xbd6af0b4	-0.05735846
250	0x3d6a9343	0.057269346
251	0xbd570012	-0.0524903
252	0x3d02dda8	0.03194967
253	0x3d18a09f	0.037262555
254	0x3cf81cf8	0.03028725
255	0x3dda8e39	0.10671658

fc2.bias f4 [4]
0	0x3f6f6f1f	0.9352893
1	0x3fc95804	1.5729985
2	0x3f0d97e1	0.55309874
3	0x3f3de31f	0.74174684
