breakout-1000-weights.pth (torch_old, 154154 bytes, 9 tensors)

conv1.weight f4 [8, 4, 5, 5]
00000000: f14a 24bd 73f3 8dbd 8207 d9bd 71a6 7ebd
00000010: 0449 37bc 87fe aabd 8a73 7e3a 988e febd
00000020: 0ea2 f5bc c892 b6bd 2543 8fbd 4f68 d3bd
00000030: 58c8 cabc b37c aebd 6060 6bbd c5e8 8dbc
00000040: ed1e aabc 4b3f cebc 3a54 babd 4764 9bbd
00000050: 5043 6abd 8ce9 8dbb abfb 64bb 4702 1dbd
00000060: e2b6 06bd 20dc 86bd 551f 973b bbdb b3bc
00000070: 3870 ffbc 114e e2bc 6bef 32bd fbe1 84bc
00000080: ea62 9ebd a310 073c c20b 1bbd a039 10bd
00000090: 8ba4 9ebd f469 9abd 985e 95bd 0dd5 febc
000000a0: 5332 34bd 9fbd d73b c604 8bbb 705d bcbd
000000b0: f943 2dbd 8335 8cbd b989 b8bd 3ee6 debd
000000c0: 0c9c 97bd 81ff d4bc be7c 93bc a45c 8fbc
000000d0: 3332 f3bd 11b0 44bd b8b2 98bd 5abc 9bbc
000000e0: 1634 11bd 6215 e1bd 54e6 8abc 98d9 7b3c
000000f0: 2a04 91bd f904 f4bd de05 cfbc 8516 adbd
00000100: 9ba7 97bd 949b ddbd c279 cebc 24df 41bd
00000110: 8eda 6a3c ee88 66bb fdfd 9ebc 6d5f c4bc
00000120: b698 e1bb 9dab 02bd c6c8 01bb b2f0 a43b
00000130: a0cb a03b e930 c3bb 58df 91bc 414f 01bd
00000140: 1a92 9dbd 347e 59bd 9655 c6bd e63a 20bc
00000150: e6e5 f2bd 586c c0bc 347d c0bd 0dec 653c
00000160: 624d 80bd 4071 57bd 2de2 cebc e87a fc3b
00000170: a062 d4bc 9dce b4bd 3828 8abd 573f aebd
00000180: 857d 96bb 34c4 c5bd ea40 48bd 09e4 7bbd
00000190: be94 80bb bd95 a7bc 6b31 e9bc 2311 2abc
000001a0: 5ef3 a7bc c35d 6ebe 16ee a0bb 987d dcbb
000001b0: 2379 62bd 9efe 59bc 523c 80be 0b03 2cbd
000001c0: a0da c5bc 0dd3 e9bb 0de1 78bc 98be c3bb
000001d0: d898 12bc 1ecc ecbc 6087 14bd e14e 35bc
000001e0: 06b2 87bc e44f 88bc c2bf ebbb 8de2 0cbd
000001f0: c1e8 9ebd 3d16 caba e9e3 61bc 8a5b 1abd
00000200: b64a 6bbb f8ba a83b 0063 aebe a2df d3bb
00000210: 703c c7bb 89fb ebbc fe8a 81bd aaae 42be
00000220: 5f08 7fbd 2f31 f8bc 2f6f c0bc e8c1 47bd
00000230: 59ef b1bc 682b d5bd 13c2 d5bc 1bf0 afbd
00000240: 5d8e df3a 9e10 a1bc aec8 f6bc a3db 35bc
00000250: 6a3d 10bd 2042 5dbc a69f 7bbd ea31 c3bc
00000260: e5e7 37bd 9001 1ebc 0098 b3bd 0b5f 56be
00000270: 2f1f 953c 6ecf 89bb 29fc 48bd e0c0 cbbc
00000280: eb4e 6dbe 2c52 a3bc 2ed2 3abc 5a7b 6fbb
00000290: a175 42bd 5558 68bc e48b 73bd 74f7 65bb
000002a0: 6228 90bd 0c7d d8bb 8f8e 2d3b e4b3 3d3b
000002b0: 1887 b4bb 8a58 6dbc 1d78 cdbd e20e c8bd
000002c0: f857 4f3b 28f8 8cbc 05ce be3b 3f3e c33b
000002d0: 3a6a a2be 1e9c 4cbc 2097 e4bb 4ea7 a5bc
000002e0: 64c3 dabb b215 68be aa06 25bd e415 e2bc
000002f0: 319f eabc 5795 83bc 06b6 0c3b 7ba0 7bbd
00000300: 6fb0 b73a f09b a03b 0559 b93b 5eb0 0dbc
00000310: f9cb 07ba 6cf8 973a c864 7bb9 dcc7 60bc
00000320: 442e e03b 7b33 1abc 2583 44bd a42d 8d3a
00000330: 4c84 903b b731 aeba 34f4 993c 2e8f d2bd
00000340: df9b 543b 6efa f2bd 2fd8 a5bd e071 84bd
00000350: fd87 81bd 7283 a0bd d0f1 c8bc 439a ebbd
00000360: 34b6 cf3b bbea efbd d0c2 b5bc 04b3 82bd
00000370: d92d 7abd e8b0 55bc 121f 1abd b3f1 89bd
00000380: 6b12 c1bc 365f e4bc 582d c7bc 4286 69bd
00000390: ab93 9fbd 4131 ccbd 6010 79bd 6e9d bdbd
000003a0: 4a27 b4bd 3dab bebd 4b84 093b b661 42bc
000003b0: 3521 b1bd d0b4 39bd 7a04 00bd 7da5 00bd
000003c0: f6dc 97bd 93b0 dcbc 19f5 fbba 792a 0cbc
000003d0: 5fa9 6dbd b72c 48bd 1077 15bd 0594 83bd
000003e0: 46d4 a33c 20a4 76bd 5167 bbbd 822e 2abd
000003f0: 1efa 31bd b146 ddbd f829 59bc c520 f6bc
-0.040110532 -0.069312 -0.10597135 -0.06217045 -0.011186842 -0.083493285 0.0009706548 -0.12429541
-0.0299845 -0.08914715 -0.06995229 -0.1032263 -0.024753734 -0.08519878 -0.057464957 -0.017322907
-0.0207667 -0.025176665 -0.09098096 -0.07587486 -0.0571931 -0.0043308195 -0.0034940045 -0.03833225
-0.032889254 -0.06584954 0.0046118894 -0.021955362 -0.03118144 -0.027625116 -0.043685358 -0.016221037
-0.0773371 0.008243713 -0.03785301 -0.035211205 -0.07746228 -0.0753974 -0.07293433 -0.03110745
-0.043993305 0.006583884 -0.0042425124 -0.09197509 -0.042301152 -0.06846144 -0.090106435 -0.10883759
-0.074028105 -0.02600074 -0.018003818 -0.01750023 -0.11874809 -0.048019473 -0.07455963 -0.019010711
-0.035450064 -0.109904066 -0.016955532 0.015371703 -0.07080872 -0.11915011 -0.025271352 -0.08451561
-0.07405015 -0.1082069 -0.025204543 -0.047331944 0.014334334 -0.0035176831 -0.01940822 -0.023971284
-0.0068846596 -0.031901944 -0.0019803508 0.005033576 0.0049070865 -0.0059567583 -0.017806694 -0.031569723
-0.07693882 -0.053098872 -0.09684293 -0.0097796675 -0.11860256 -0.023489162 -0.093988806 0.01403333
-0.062647596 -0.052598238 -0.025254333 0.0077050813 -0.025925934 -0.08828471 -0.06745952 -0.08508175
-0.0045926 -0.096565634 -0.048890032 -0.06149677 -0.0039239815 -0.020457143 -0.028465947 -0.010380062
-0.020501789 -0.23277955 -0.0049111946 -0.006728839 -0.055291306 -0.013305334 -0.2504602 -0.04199509
-0.0241521 -0.007135755 -0.015190375 -0.0059736483 -0.008947574 -0.028905924 -0.036261916 -0.0110661695
-0.01656438 -0.016639657 -0.00719449 -0.034395743 -0.07759238 -0.0015418004 -0.013787248 -0.037684955
-0.0035902685 0.0051492415 -0.34059906 -0.006465868 -0.0060802028 -0.028806465 -0.06325339 -0.19011942
-0.062263843 -0.03029689 -0.023490516 -0.048768908 -0.021720575 -0.1040867 -0.026093518 -0.08590718
0.0017055977 -0.019661244 -0.030124988 -0.011099729 -0.03521482 -0.013504535 -0.06143155 -0.023827512
-0.044898886 -0.009643927 -0.08769226 -0.20934694 0.018203346 -0.0042056357 -0.049068604 -0.024872243
-0.23174636 -0.019936644 -0.01140265 -0.003654203 -0.04747546 -0.014181216 -0.059459582 -0.003509012
-0.070389524 -0.0066067036 0.0026482677 0.0028946334 -0.0055092685 -0.014486441 -0.100326754 -0.09768464
0.0031638127 -0.017208174 0.0058228993 0.005958348 -0.3172167 -0.012488393 -0.0069760233 -0.020221379
-0.0066761244 -0.22664526 -0.04028956 -0.027598329 -0.028640362 -0.016062422 0.00214708 -0.061432343
0.0014014373 0.0049014017 0.005656364 -0.008648006 -0.00051802356 0.0011594421 -0.0002397477 -0.013719525
0.006841453 -0.009411688 -0.04797663 0.0010771048 0.0044103023 -0.0013289963 0.018793203 -0.102812156
0.003244154 -0.11864172 -0.080978744 -0.064670324 -0.06324766 -0.07837571 -0.024529368 -0.115040325
0.006338859 -0.11714693 -0.02218762 -0.06381801 -0.06107888 -0.013042666 -0.037627287 -0.067355536
-0.023568353 -0.027877431 -0.024313614 -0.057012804 -0.07791837 -0.09970332 -0.060806632 -0.09258543
-0.08796556 -0.09310005 0.0020983394 -0.011864116 -0.08648912 -0.04533845 -0.03125427 -0.031407822
-0.07415192 -0.026939666 -0.0019222825 -0.008555048 -0.058022853 -0.04887077 -0.0364905 -0.06424717
0.01999868 -0.060215116 -0.091505654 -0.04154826 -0.04345142 -0.10804499 -0.013254635 -0.030044923

conv1.bias f4 [8]
00000000: a736 90bf f346 9cbf 7cc6 b6bf 7674 7abf
00000010: 27e6 85bf 1b0b 7ebf 629d e9bf 8e41 a1bf
-1.1266679 -1.2209152 -1.4279323 -0.97833955 -1.0460862 -0.99235696 -1.8251154 -1.2598131

fc1_val.weight f4 [64, 288]
00000000: 7c98 89bc 45a0 d8bc 0e93 a3bb b03f 37bd
00000010: 2253 e63b bfee 353d f5a9 2f3d 512c 613d
00000020: 7896 69bc dbf3 193b e63b 013d 82a3 203d
00000030: 4037 98ba 9ba3 053d 7072 dbbb fc59 20ba
00000040: a8e1 103d 2da8 ab3c 1aa5 e23c cdf9 58bb
00000050: d4b6 e0bd 6dfd 833c bb09 3f3c 4894 293c
00000060: 93d7 2b3d e9c4 bcbb 3521 5bbc 2ac1 853d
00000070: 754d 64bd a851 47bd 5e59 60bd 756e 68bd
00000080: e480 0c3d ae87 67bd 5645 55bc 7431 1dbd
00000090: 5882 813c da22 a23b c48e 18bd 7029 10bd
000000a0: 529e 793c 3428 353d 48ee f53c 56b3 193c
000000b0: fe94 2abd 6886 583d da46 24ba 0ea7 6cbd
000000c0: 9dbd 7c3d e655 48bd 47f7 e4bd 7531 afbd
000000d0: 9032 4639 f383 353c 5b01 b73c 09a1 8cbb
000000e0: 0863 a5bc 38e2 cebc f0a1 21b9 2cf5 e13c
000000f0: d8e5 6f3d 0822 51bb df86 b9bd 4bad c7bd
00000100: 6c18 2bbc b3ea 3fbd d27c 10bd c21d d4bd
00000110: 1845 afbd 8b6a 84bd b5b6 d3bd 0819 1c3d
00000120: 61f1 ce3c a8dc d03b f1e7 8a3c bd1d 9f3c
00000130: a086 5d3d 00ba 4f3d bd09 143d 7ee1 f4bc
00000140: d2c1 26bd 28e9 1e3d c538 1c3d c4be 34bc
00000150: c302 c03b 86b5 aabc f2b7 7fbc 3bdb cfbb
00000160: 442e 5a3d 0a95 8abd a06b 383d 050d ad3d
00000170: 271c 97bc 2fcd f73b 68dc e9bb ddd7 82bd
00000180: bafd 60bd c113 873c 8a09 0d3c 5954 c73d
00000190: dec3 453d 8425 9d3d 1b44 ff3c 7c0d b7bd
000001a0: 8d54 aa3d 854b 673c 5547 06bd c0fa 143d
000001b0: 38a0 10bb 9f84 19bd 87b0 a33c c21c 60bc
000001c0: 9460 113d c1c2 0fbd 5698 d4bc 6f4c 17bd
000001d0: 3a2c 553d ea8e 16bc 22d2 44bd 1bf3 873b
000001e0: 6dee 083d 06a6 bd3c 3e0a 43bc d1a2 d33d
000001f0: c364 52bd 6078 153d cde2 12bd 679a 863c
00000200: 5a98 9ebd fa9a f13d e75f c23c 9005 c63d
00000210: 2f99 2e3d 7fe0 4cbd dfc2 07bd 855a 78bd
00000220: ce78 913d 5d48 743d bc76 8aba e7f5 3d3d
00000230: 4161 acbd a23e 243d 7d59 2dbb 0297 593d
00000240: 3883 743d 8e98 1f3d 0a64 053d a08b 053c
00000250: 31a4 203b a2fe 6cbc b80d 47bd 7452 f63b
00000260: d9c5 f3bc 79cd f2ba 355d 0fbd d104 57bd
00000270: 13d5 4dba d72d 20bd 2d63 263d 3991 6abc
00000280: fd8e 423d dba3 143d 4cb4 53bc 53ce 673d
00000290: 746a 473d 3f60 9f3d 786a 823c 194e 923d
000002a0: 20dc 9d3b b06b e43b 34a2 9a3d 20b9 bbbc
000002b0: a1dd 803c f2ef 1d3d 4810 4b3d 0ed7 773d
000002c0: 9a80 783d 249a 83bd 242a 45bc 7b99 5e3c
000002d0: fa60 d33c 6c45 bfbc 4613 c3bb d9fe dd3a
000002e0: c791 11bd 40bf 4f3c 14f9 ccbd 1c66 de3c
000002f0: 62cf dc3c b2e4 b53c 2f7a 113d 67b1 1cbd
00000300: f58b a93b 40bc 1939 dfbb 7d3d 8699 c03d
00000310: d8f7 6cbd 086c 393d 31ee 44bd 7145 29bd
00000320: 5292 adbd f987 44bd 825a 323d 007f b43b
00000330: eed8 663b e942 a73d 1007 dd3c dc71 fd3c
00000340: b2ad 8cbc 8332 183c cfe6 c4bd 97ba 6c3d
00000350: 2aa0 a2bc 2835 0fbd 423d 313d 9a8b 94bc
00000360: 1e69 e93c caec 05bd c6da cc3c e1fb c8ba
00000370: 07e9 3b3d 1897 08bd 0fa2 833c c3b7 043d
00000380: 334c 1abd 1448 aabc c612 213d 4315 4c3d
00000390: 0a70 39bd cb52 babb 7403 19bd 1943 1d3d
000003a0: b41f f7bb 60bc 833d 62e0 6cbd d981 92bc
000003b0: 7f54 34bd a2f2 5cbd 703c 30bd 8543 b3bb
000003c0: 5adb 4c3d f0e4 793d 9e68 d5bb 2239 54bd
000003d0: 9386 153d 0997 98bb 9459 b03c 2f96 f63d
000003e0: 4e1b 563d e0a4 c03c 26ce b6bd 8f8c 9e3c
000003f0: cc6a 3d3d 0e3f 3abd 5907 6ebd 1615 203c
-0.016796343 -0.02644361 -0.0049918955 -0.04473847 0.007028953 0.04441714 0.042886693 0.054973904
-0.014257066 0.0023491296 0.031551264 0.039218433 -0.0011613145 0.03262673 -0.0066969916 -0.00061169243
0.035371453 0.020954216 0.027666617 -0.0033107877 -0.10972372 0.016112054 0.011660035 0.010350294
0.041953634 -0.005760778 -0.013374616 0.06530984 -0.05573793 -0.048661858 -0.054772727 -0.056745965
0.034302607 -0.05652588 -0.013017019 -0.03837724 0.015809223 0.0049480023 -0.037245527 -0.035195768
0.0152355 0.044227794 0.030020848 0.009381136 -0.041645996 0.052862555 -0.0006266661 -0.057776503
0.061704267 -0.048910044 -0.11179977 -0.08554355 0.00018901587 0.011078822 0.022339514 -0.004291658
-0.020188823 -0.025254354 -0.00015414483 0.027582727 0.058568805 -0.0031911153 -0.09058928 -0.0974985
-0.010442834 -0.046854686 -0.035275288 -0.10357238 -0.085581005 -0.06465634 -0.10337583 0.03810981
0.025261583 0.0063739605 0.016956301 0.01942336 0.054083467 0.050714493 0.0361421 -0.02989268
-0.040712185 0.038796574 0.038140077 -0.01103181 0.005859704 -0.02083851 -0.015607821 -0.006343273
0.05326678 -0.06766708 0.045024514 0.08449749 -0.018446041 0.0075623016 -0.00713687 -0.06388829
-0.054929473 0.016488912 0.008608231 0.09732885 0.048282497 0.07673171 0.031160405 -0.08938119
0.08316908 0.014117126 -0.03278287 0.036371946 -0.0022068154 -0.037479993 0.019981636 -0.013678731
0.035492495 -0.03509784 -0.025951546 -0.036938127 0.05204413 -0.009189347 -0.04805196 0.0041488535
0.033430506 0.023150455 -0.011904297 0.10333789 -0.051365625 0.03649175 -0.035860825 0.016431047
-0.077439025 0.117971376 0.02372737 0.0966903 0.042626556 -0.050018784 -0.033144828 -0.0606332
0.0710312 0.059639324 -0.001056395 0.04637709 -0.08416987 0.040098794 -0.0026451044 0.053122528
0.059695452 0.038963847 0.032566108 0.008150965 0.0024511928 -0.014465006 -0.048597068 0.0075171534
-0.029757427 -0.001852437 -0.035001 -0.052494828 -0.000785188 -0.039106216 0.040621925 -0.01431685
0.047499646 0.036289077 -0.012921404 0.05659325 0.048685506 0.07782029 0.015919909 0.07143802
0.0048175007 0.006970845 0.07550469 -0.022915423 0.01573068 0.038558908 0.049576074 0.060507827
0.06066952 -0.06425884 -0.012033973 0.013586397 0.025803078 -0.023348533 -0.0059532253 0.0016936912
-0.035539415 0.012679875 -0.100084454 0.027148299 0.026954357 0.022203777 0.035516914 -0.03825512
0.005174155 0.00014661346 0.061946746 0.09404282 -0.05785355 0.045269042 -0.04807872 -0.04132599
-0.08475174 -0.047981236 0.043543346 0.0055083036 0.0035224515 0.08167059 0.026980907 0.030938081
-0.017172668 0.009289387 -0.09614336 0.057795133 -0.019851763 -0.034962803 0.04327131 -0.018132973
0.028492507 -0.032696523 0.025006663 -0.0015333855 0.04587653 -0.03334722 0.016068486 0.03240181
-0.037670325 -0.020786323 0.039324544 0.049824964 -0.045272864 -0.005686139 -0.03735681 0.038394067
-0.007541621 0.06432414 -0.057831176 -0.017884182 -0.044025894 -0.05394233 -0.043026388 -0.0054706954
0.050013877 0.061009347 -0.0065127155 -0.0518123 0.036505293 -0.0046566767 0.02152709 0.12040364
0.052272134 0.023516119 -0.089260384 0.019354133 0.046244428 -0.04547029 -0.058112476 0.009770652

fc1_val.bias f4 [64]
00000000: de20 c2bf 5e63 0441 df88 19bf 6dbb b0bf
00000010: 7ad9 35ba e194 5a40 7b8f a23f be8a 0041
00000020: 0da2 9abe 0363 50c0 d750 d23f 63f4 c43f
00000030: fba5 0241 fad1 cf3f 9c02 a5bc 6638 c93f
00000040: 1e20 bf3f d0ab d640 0434 0041 fd4f 0341
00000050: ae65 60bd 25bc d73f e680 98bd c3e7 7fbc
00000060: cbeb 1f40 f97f c23f 579c cdbd 1acb 26be
00000070: 2166 4040 6352 45bd 374b a2bd 920b fbbd
00000080: 728c 20be bd47 cd3f 5a1b d73f ca65 9abd
00000090: 407d ddbd 145e 02be 7e13 29bd 293d 0541
000000a0: 751d e23f b624 8ebd 7966 c63f f6ad f5bd
000000b0: cabb 933f f0c0 cdbd 24b0 6140 8ee1 b2bc
000000c0: ab59 0541 0681 3bba 2596 a540 e3ba fbbd
000000d0: b2a2 15be 4d7d 69bd 7e25 13b9 0e7c ef40
000000e0: 7049 5fbe 7328 0e40 5a49 c5bc 2615 11c0
000000f0: 4938 5ebe 6bac 90bd e953 eb40 517d 033f
-1.516628 8.27426 -0.59974474 -1.3807198 -0.00069370086 3.4153368 1.2700037 8.033873
-0.3020176 -3.2560432 1.643092 1.5387081 8.165523 1.6235955 -0.020142846 1.5720336
1.4931676 6.708473 8.012699 8.207028 -0.05478447 1.6854292 -0.074464604 -0.015619221
2.4987667 1.5195304 -0.10039585 -0.16288415 3.0062335 -0.048174273 -0.07924502 -0.12258066
-0.15678576 1.6037518 1.6805222 -0.07538946 -0.10814905 -0.127312 -0.041278355 8.327432
1.766524 -0.06940596 1.5500022 -0.11996071 1.1541684 -0.100465655 3.5263758 -0.021836068
8.334392 -0.000715271 5.174578 -0.12291505 -0.14612845 -0.05700426 -0.0001403298 7.4838934
-0.21805358 2.2212188 -0.024082828 -2.2669158 -0.21701159 -0.07064136 7.353993 0.5136309

fc2_val.weight f4 [1, 64]
00000000: 32ca 1f3d 8f26 01bf 3737 153e 20c2 523b
00000010: d349 ed3c 9510 243f 3088 a73f 2f68 02bf
00000020: 5f2e 2dbd f4dd a53c 5ef3 d33f a86b bc3f
00000030: 3166 00bf 9c02 cf3f f3d7 ecbc 6e4f c73f
00000040: f226 b73f 1f6d fcbe f0f3 03bf 5698 01bf
00000050: 896a adbd 5823 cc3f 0eae 12be 9ab8 e4bd
00000060: 773d 8a3f 32bc b73f 4168 b2bd c546 b73c
00000070: 2ad9 433f 60f1 1dbe 953d 42be 410d 22bd
00000080: f702 cbbd 47fd b83f bcda db3f 5ea7 1cbe
00000090: 22d5 59be 2dca 34be fe0f c73b 90ed 05bf
000000a0: 41bc cc3f 978f 15bc a5de c73f 216f b3bd
000000b0: 4acc 913f 4d23 423c 69c9 2f3f d99b 77be
000000c0: 6547 05bf 7264 4c3d c3e4 58be d52b 0fbe
000000d0: f9cb 35be c87c 00be b423 a13b 536d e9be
000000e0: e4ac b23c f489 a33f 37aa 063e 8678 e93b
000000f0: 638a babd 20cf 14be 599a dbbe 3c49 85be
0.039011188 -0.5044946 0.14571844 0.0032159165 0.028965866 0.640878 1.3088436 -0.5094022
-0.04228055 0.020247437 1.6558645 1.4720354 -0.5015593 1.6172671 -0.028911566 1.5571115
1.430876 -0.49302003 -0.51544094 -0.5062307 -0.084675856 1.5948286 -0.14324209 -0.111680225
1.0800008 1.4354308 -0.08711291 0.022372613 0.7650324 -0.15424109 -0.18968804 -0.03956342
-0.09912675 1.4452294 1.7176127 -0.1529822 -0.2127271 -0.17655249 0.0060749045 -0.52315617
1.599495 -0.009128473 1.5614821 -0.087614305 1.1390469 0.011849237 0.686667 -0.24180545
-0.52062064 0.04990048 -0.21181016 -0.13981564 -0.1775359 -0.125476 0.004917586 -0.4559122
0.021810956 1.2776475 0.1315087 0.007124963 -0.091084264 -0.14532137 -0.42891195 -0.26032436

fc1_adv.weight f4 [64, 288]
00000000: ff36 883c e710 7dbd 61b6 79bc 69c4 173d
00000010: 8a87 55ba f4de 163a df43 f3bb d2f7 dfbc
00000020: ab08 293d 9662 3dbd 3a9a 643d c2ed f63c
00000030: 23a0 353d 3b7b 943c a99f 563c ae17 433d
00000040: 7d64 6bbd 6e3e 01bd 02a5 8e3c 3ecd 73bd
00000050: 5ece 543d a5a8 e5bc 9929 30bd e6cd c4bc
00000060: a34f 3b3d cc64 1d3d 6029 10bc 26bc b0bc
00000070: 81ca 1ebb fa11 59bd f1cc fc3c b971 7c3d
00000080: 5922 1d3d ecec 53bd bacf 7ebd 6052 40bd
00000090: 3235 c7bc a2a4 0abd 73bc 713c cb50 603b
000000a0: 2b10 0f3b 4c71 3fbd 0cfb 213d 306d 363c
000000b0: 4209 79bd f278 a33b 71ff d6bc 0511 aabc
000000c0: cac5 263d 89ef 2c3c b821 a7bc e875 66bd
000000d0: 0db6 573d 42ea a83c 8a59 99bc f961 dfbc
000000e0: 3616 bfbc 0c75 ccbc 0915 c9bc 8cc2 06bd
000000f0: da0b 86bd 10f1 4cbd ce1c 58bd 7e0b 833c
00000100: 92e9 1abd 0286 73bd f26a 7bbb 657c f63a
00000110: 16f0 033d 327e 47bd f85a 093d c117 b2bc
00000120: 9ba1 cebc 1d20 1a3d 2968 37bd 3baa 95bc
00000130: 893d 64bd 7585 46bd fa6a 37bd be8a f63b
00000140: 342a 5a3d 9fe9 3d3c 269e 5e3d 8803 02bc
00000150: 23ed 3b3d 9820 063d fd81 f2bc ab6f 13bd
00000160: 1a51 8a3c 729d ddbc af80 40bc e682 9e3c
00000170: 101d 88bc 452a 48bd ccf2 aa3c b672 253d
00000180: 4968 17bd ba56 d13c 1447 aabb cf84 2c3c
00000190: 1496 c13c 64a1 42bd d36c 34bc 4ddf 283d
000001a0: d400 0cba e355 babc 48d8 203d 4f66 e5bc
000001b0: ec57 823c e85f 4bbd 1c7d 8b3c 5948 563d
000001c0: 8836 1f3c 872e 173d 0d34 4a3d 903e c2bb
000001d0: 6044 983c 7f3e 413d 4e8c c0bc 58dd 073c
000001e0: 17f7 643d 578c 4b3d 9466 c53c f965 40bd
000001f0: 3023 283d a92c 2ebd f69a 473c 40a5 0dbb
00000200: 4937 fbbc a466 7bbd 2e47 35bd 5146 413d
00000210: e96d dabb 566f 1ebd f0f4 443d 2638 623d
00000220: 40b6 c83c c1d8 2fbd 5e3e 65bc 56db 683c
00000230: ad12 64bd 284e 98bc ee35 4fbd 5962 3abc
00000240: 83a7 fc3c 9c7d de3c 18b0 403d 6cbb a83c
00000250: d8d5 633d 6e65 173d 9b39 233d ad94 14bd
00000260: 1d18 61bd 53ca b73c 3655 2c3d 8a56 57bd
00000270: 8d90 873c dc06 0fbd 70a4 fdbc 9f11 01bc
00000280: dc3d abbc d8cc 423d 10a9 633d 59c2 1fbc
00000290: 3812 4d3d af8e 74bd 68c6 d9bc 7920 bcbc
000002a0: 50fc 053d f939 82bd f683 0dbc bddb 2a3d
000002b0: add5 833c 5ea3 ff3b 1911 09bd 1413 2f3d
000002c0: a9c1 5a3d 5792 19bb 5276 ba3c 4f95 5abd
000002d0: 0b73 8f3c d1dd 263d 3d06 bc3c 0cf6 57bd
000002e0: fe3a 4cbd 7eb0 653c f86a c3bc 5e8a 803c
000002f0: cc38 093c 8019 5e3c 08f2 213d a381 16bd
00000300: abd0 f7bb f1e2 993c b9e1 33bd 2f55 29bd
00000310: edd4 b33c 7ffd c0bc b47a c9bb b795 20bd
00000320: be9e 48bd 40fe a23c 3062 8f3c 718f 043d
00000330: cdfe e03c 5ddb a93a 5fcc d1bb 3654 073d
00000340: 9bea c0bc 6c63 5c3d 9f51 273d d0ff 7a39
00000350: 558e 6b3d e2a5 3b3d d2bc 21bd 0785 11bd
00000360: 582f 8c3b 151f 6a3d 6226 c93c 78a3 56bc
00000370: 3c19 2a3c 4900 f6bc 939b 733d 129a 36bd
00000380: bdda 313d f285 223d 0930 0cbb 5381 0a3d
00000390: ff02 48bd b7ef 85bd fe32 f1bc 6556 d4bc
000003a0: b814 a0bc 140f 273c 0bec 0cbd 26f8 d03c
000003b0: e8bb 40bc a6b5 2fbd 9a90 50bd 82d6 ccbc
000003c0: bb62 2a3d a9e2 8d3b 6fb2 6e3c eedf 98bc
000003d0: 6cfc 5bbd 8068 0d3d ce58 adbc c958 293d
000003e0: 049d ad3c 29ca 6f3d 1109 4abd 4540 eebb
000003f0: 169f 1e3d 614d ea3c 6f0c 15bd 80d4 193d
0.016627787 -0.061783697 -0.015241236 0.037052546 -0.0008145502 0.00057552685 -0.0074238623 -0.02733985
0.041268032 -0.046236597 0.055811144 0.030142669 0.04434217 0.018125167 0.013099589 0.047630005
-0.05746888 -0.03155368 0.017412666 -0.059521906 0.05195462 -0.028034518 -0.04300842 -0.024023961
0.045730244 0.038426206 -0.008798927 -0.021574091 -0.0024229588 -0.05299566 0.030859442 0.061631892
0.038362835 -0.05173962 -0.062209822 -0.04695356 -0.024317358 -0.033848412 0.014754402 0.0034227844
0.0021829705 -0.046738908 0.039546058 0.011134431 -0.060799845 0.004988783 -0.02624485 -0.020760069
0.04071597 0.0105551565 -0.02040182 -0.056264788 0.05266385 0.020619515 -0.018719453 -0.027268397
-0.02332602 -0.024958156 -0.024546163 -0.032900378 -0.06545229 -0.050034583 -0.052761845 0.01599669
-0.037820406 -0.05945397 -0.0038363305 0.0018805383 0.032211386 -0.048704334 0.03353402 -0.021739842
-0.025223544 0.03762828 -0.04477707 -0.018269649 -0.055722747 -0.04846712 -0.044779755 0.0075238636
0.053262904 0.011591344 0.05435004 -0.007935412 0.045880448 0.032745928 -0.029602999 -0.035995167
0.016884375 -0.027052615 -0.011749431 0.019349527 -0.01661542 -0.048868436 0.020867728 0.0403926
-0.03696469 0.02555405 -0.0051964615 0.010529711 0.023631133 -0.047517195 -0.011012274 0.04122858
-0.00053406996 -0.022746032 0.039268762 -0.028002886 0.015911065 -0.04965201 0.01702743 0.05231509
0.009717591 0.036909606 0.049366046 -0.005927868 0.018587291 0.04717874 -0.023504402 0.008292519
0.055899706 0.049694385 0.024096765 -0.04697225 0.041049182 -0.04252306 0.012182942 -0.002161339
-0.03066601 -0.061377183 -0.044257335 0.0471862 -0.0066659343 -0.038680397 0.048085153 0.05522933
0.024500966 -0.042931322 -0.01399192 0.01421245 -0.055681873 -0.018591955 -0.05058854 -0.011375987
0.030841595 0.027159505 0.047042936 0.020597182 0.05562386 0.036961965 0.03984986 -0.0362746
-0.054954637 0.022435343 0.04207345 -0.052572764 0.01654842 -0.03491865 -0.030962199 -0.007877736
-0.02090352 0.047558635 0.055581152 -0.009750926 0.050066203 -0.059706386 -0.026583865 -0.022964703
0.032711327 -0.06358714 -0.008637419 0.041713465 0.0160931 0.0078014573 -0.03346357 0.042742804
0.053407345 -0.0023433173 0.022761498 -0.053365048 0.017510911 0.040738884 0.022952193 -0.052724883
-0.049860947 0.01401913 -0.023854718 0.015690979 0.008375358 0.013555884 0.03953746 -0.036744725
-0.007562717 0.018784972 -0.043916438 -0.041341003 0.021952117 -0.023558376 -0.0061486606 -0.03920528
-0.048979513 0.019896626 0.017502874 0.03236336 0.027465248 0.0012959052 -0.0064025368 0.033039294
-0.023549369 0.053805754 0.040849324 0.00023937155 0.057508785 0.045812495 -0.039486714 -0.035527255
0.0042781048 0.05715855 0.024554435 -0.013100497 0.010381993 -0.030029433 0.05947454 -0.044580527
0.043421496 0.03967852 -0.0021390936 0.03381474 -0.048830982 -0.065398626 -0.02944326 -0.025920102
-0.01954113 0.010196466 -0.034404796 0.025508951 -0.01176355 -0.042897843 -0.050919153 -0.025004629
0.041598063 0.0043299985 0.014568909 -0.018661465 -0.053707525 0.034523487 -0.02116051 0.041344438
0.021193035 0.058542404 -0.049325053 -0.007270845 0.038725935 0.02860135 -0.03638881 0.03755617

fc1_adv.bias f4 [64]
00000000: adf2 8fbd 1d36 2ebd 0c9c ddbb cd41 7abd
00000010: 854a f03c e641 183f ce45 6dbc ade0 23bd
00000020: dfa3 f33e afc6 b1bc 1e44 263f acda 6cbb
00000030: 45eb 75bd bb75 0cbc 577e 0cbd d0b6 f8bc
00000040: 5193 6cbd 0fee e63e bff7 12bd 3bbe 073e
00000050: cdb7 a2be 782e 4abc c124 81bd 28b5 96bd
00000060: 5b30 dcb9 cf58 3cbc d6ad 0cbe 230f 7abd
00000070: 34ef d5bd 5232 533e 8354 8bbd 30d1 66bc
00000080: e7b1 aabd fc2f 9fbc f1a6 f6bd 7051 8abe
00000090: 26e1 41bd b211 49bd 8e58 f9bc daca c8bd
000000a0: 67fb a6bd 0f43 98bc 01e9 893e a04c adbc
000000b0: 0a49 48bc 1324 8fbd 7310 33bd ef21 3cbd
000000c0: aba5 6ebd f2b0 013e 605f 45be cf6c 8a3f
000000d0: f34c 29bd 8d21 69bd 9af5 85be ede7 52bd
000000e0: 88d3 96bd 3f2e 8fbc cf2a 083f 81f1 86ba
000000f0: eddc 1dbc c50d 493e e816 30bc 9d72 1dbd
-0.070287086 -0.042532075 -0.006762987 -0.06109791 0.029332409 0.59475553 -0.014481975 -0.04000919
0.4758596 -0.021701185 0.6494769 -0.003614108 -0.060038824 -0.008572991 -0.034300175 -0.03036061
-0.05775768 0.451035 -0.0358808 0.13256161 -0.31780854 -0.012340181 -0.063058384 -0.073587716
-0.00041997698 -0.011495783 -0.13738188 -0.06104959 -0.10446015 0.20624664 -0.06803229 -0.01408796
-0.083347134 -0.01943206 -0.1204356 -0.27015257 -0.04733386 -0.04908914 -0.030437734 -0.09804316
-0.0815342 -0.018586664 0.2693558 -0.021154702 -0.012224445 -0.069893025 -0.04371686 -0.0459308
-0.058263462 0.12665156 -0.19274664 1.0814456 -0.04133315 -0.056916762 -0.26163942 -0.051490713
-0.07364565 -0.017478107 0.5319032 -0.0010295362 -0.009635192 0.19634159 -0.010747649 -0.038439382

fc2_adv.weight f4 [4, 64]
00000000: d567 82bd 39a8 fe3c 53e6 26bd 4c17 ff3b
00000010: 4dfa babd 8c80 ab3f 7bd6 0dbd 565e 7ebd
00000020: 796b b63f a5c0 983d 9381 a63f 516d 863d
00000030: 7fe6 75bd 8f6c dc3c 23cc 07bc f5bf 62bb
00000040: d214 8bbc 4970 af3f d2d1 083e ce72 5e3f
00000050: fc29 f03a 9de2 403d 50a2 f5bd 5a82 9a3d
00000060: 43b6 a73e ef2d e5bd 8163 b0bd 411e a4bd
00000070: 9944 ae3c 99ec 823f 9488 d8bd 964d 70bc
00000080: 6a0b 17bd 0422 143d 4517 98bc 1008 1fbe
00000090: 9230 86bc 9103 3dbd edbb 50bd 84bb 453d
000000a0: efca 51bd 0ad8 c4bc 847e 4c3f 065a a93d
000000b0: 559b c83d a1e6 62bc 16b0 93bd e233 38bd
000000c0: 2747 9bbd 39c9 3c3f d27c a0ba 84bc 953f
000000d0: 6549 e7bd a5bd 76bd 9f76 163b 2d11 fe38
000000e0: 199e fbbb 806b c2bc 7f6d b43f 30c2 813d
000000f0: 71ea d9bd 4e22 993f a73c 2bbd f84b 263e
00000100: 11bc 85bd c120 e13c 6489 a3bd 9b9b 653d
00000110: c9e9 f6bd 05a1 ad3f 87af 9cbd a865 e23d
00000120: c7f6 c43f 6458 3abc 1544 a03f d8b4 9bbd
00000130: 6cd0 d1bd 9652 8abd 375c 043e 6dba aabd
00000140: d222 6dbd 159b af3f 313d f63d a4be 723f
00000150: 0ce5 f8bc c4e9 00bc 6f63 aabd 40f5 593c
00000160: 01b8 cd3e 0bb2 24be 386b a4bc 9ab9 bfbb
00000170: f170 9bbc 91bb 883f 557b 0e3d 6acc 9bbd
00000180: dfce acbd 64fd d6bd 8fb1 11bd 982f 91bc
00000190: 66f2 023a 620d 553d b282 a6bc 9d7c 953c
000001a0: 8b0a a2bd 1c90 ffbd d520 513f 5dcb fe3d
000001b0: 2051 423c 28f5 f0bd fea8 89bd 808f 3f3c
000001c0: 918b a5bd 4e4e 573f 7b63 863d 4da2 b13f
000001d0: c7b6 86bc fe7d c6bd e24a 24bd cdc8 1abd
000001e0: 51ca e0bd 4f97 cfbc 3138 c53f bf89 5c3d
000001f0: 4f82 52bd 4352 973f 1936 45bd cf7a 49bc
00000200: 728b eabd 6ab2 133e 813e 213c 2b0b 88bc
00000210: 9ee0 9bbd 920f c83f 580d a8bd 453c f4bd
00000220: 93de bb3f 9343 2cbd e3fb b23f 7200 71bd
00000230: 786b edbc bdca 793c dc90 f0bc 63f0 8fbb
00000240: 47d4 06be d23a c93f eca0 db3d 017f 6e3f
00000250: 15f9 563b f466 b43c c1c1 cfbd 3e17 773d
00000260: 74dd de3e 79e0 54bc 966a 57bd c6a2 033e
00000270: dd83 00bd 47de 943f 3f65 243c 2a33 cbba
00000280: 91f5 2fbd 8c64 19be 7947 d6bd 020f 9abd
00000290: 318c 90bd adef 30bd f678 55bd bf81 793c
000002a0: 36d4 fabc f239 883d 8045 7d3f d2e8 923d
000002b0: e9ab 6d3d b2d4 0fbd 5a7d 8f3d ce49 9a3d
000002c0: aab7 ae3d b7a1 6b3f 5c0a dabc 5c2f 8f3f
000002d0: 4570 d63a 53c1 6fbd 680e 463d df93 8a3c
000002e0: a752 8c3c 5afa 3e3c f580 b93f ce26 f4bc
000002f0: 9456 a23d 1e25 a23f e763 ecbb 5136 9c3d
00000300: 9d12 6b3d 0626 053e 4182 aebd 3779 93bd
00000310: fbda debd 00f4 aa3f 1c3d b5bd eda6 283d
00000320: bf6f b93f 6f24 66bc 1e7d 9f3f f6a5 0fbe
00000330: 5db6 0abe b013 e3bb bc9a 81bc 6970 673d
00000340: fb24 b5bc abcf a93f 9dc0 133d f741 6d3f
00000350: 6268 633d e604 9a3b 6109 cdbd ae9f 46bd
00000360: 6c96 4b3e 84c0 f8bc 6c3d 52bd 24f2 66bc
00000370: 5efd 16bd 2a17 813f f82e d7bd 8c8b 483c
00000380: f20f 533d 469c 97bb 7afe 3a3d 7b0d e4bd
00000390: 49f0 9f3c 7242 01bc 7c45 013d 8b08 953d
000003a0: 45a3 adbc e4f3 80bc e0c6 3b3f cb5c 083d
000003b0: 585d 7a3d 0c85 68bd 97ec 1cbc 7954 1ebd
000003c0: a656 bfbd 63f8 343f cfd5 bd3c 85cb 993f
000003d0: 2b0c 533d 914f f1bd 5f22 7abc b3a6 b43c
000003e0: a797 573d 141a 1cbd 37c6 b73f 8836 e2bc
000003f0: 4b72 913b 5901 923f 6512 a83b b8e6 993d
-0.06367461 0.031086074 -0.040746998 0.0077847596 -0.09129772 1.3398604 -0.034628373 -0.062101685
1.4251548 0.07458619 1.3008293 0.06563819 -0.06003427 0.026907234 -0.008288416 -0.0034599279
-0.016977701 1.3706142 0.1336129 0.8689393 0.0018323059 0.047091115 -0.11993849 0.07544394
0.32756242 -0.11190402 -0.08612729 -0.08013583 0.021272944 1.0228454 -0.10572925 -0.014666935
-0.03687612 0.036165252 -0.018565783 -0.1553042 -0.016380582 -0.04614598 -0.05096047 0.048274532
-0.051218923 -0.024028797 0.7988055 0.08269124 0.09795252 -0.0138489315 -0.0721132 -0.044971354
-0.075819306 0.7374454 -0.0012244231 1.1698155 -0.11293296 -0.060239453 0.0022958887 0.00012114863
-0.007678759 -0.0237329 1.4095916 0.063358665 -0.10640419 1.1963594 -0.04180589 0.16239917
-0.065300114 0.027481439 -0.079851896 0.0560566 -0.1205631 1.3564764 -0.07650667 0.11054546
1.538781 -0.011373613 1.2520777 -0.076028526 -0.102448314 -0.06754033 0.12925802 -0.08336339
-0.057894535 1.3719202 0.1202339 0.94822145 -0.030382656 -0.007868234 -0.08319747 0.013303101
0.40179446 -0.16083543 -0.020070657 -0.005850983 -0.018974753 1.0682241 0.034785587 -0.07607348
-0.08437895 -0.10497549 -0.035569724 -0.01772289 0.00049952266 0.052014716 -0.020325992 0.018247897
-0.07912167 -0.124786586 0.8169072 0.12441132 0.011860162 -0.1176551 -0.06721686 0.011691928
-0.08083261 0.8410386 0.06561943 1.3877655 -0.016444577 -0.09692 -0.040110476 -0.037789155
-0.10976089 -0.025340704 1.5407773 0.053842302 -0.051393803 1.1821979 -0.048147295 -0.012297346
-0.11452378 0.14423528 0.009841562 -0.016606888 -0.07611202 1.5629752 -0.0820567 -0.11925558
1.4677299 -0.04205663 1.398312 -0.058838315 -0.02898191 0.0152460905 -0.02936595 -0.00439267
-0.13166915 1.5721076 0.10724053 0.9316254 0.0032802273 0.022021748 -0.101443775 0.0603249
0.4352833 -0.012992972 -0.052591883 0.12855062 -0.031375755 1.1630334 0.010033905 -0.0015502919
-0.0429588 -0.14979762 -0.10462851 -0.07522394 -0.070579894 -0.043197323 -0.05211731 0.015228688
-0.030618768 0.06651677 0.98934174 0.07173313 0.058025274 -0.03511495 0.07006331 0.075336084
0.08531125 0.9204363 -0.026616268 1.1186328 0.0016360363 -0.058533978 0.048353583 0.016916214
0.017129255 0.011656368 1.449248 -0.02980366 0.0792667 1.2667577 -0.0072140577 0.076275475
0.057390798 0.13002786 -0.08520938 -0.07200854 -0.10881611 1.3355713 -0.08849546 0.041174818
1.4487227 -0.014046772 1.2460058 -0.14028153 -0.13546129 -0.006929837 -0.015820853 0.056503687
-0.02211236 1.32665 0.036072362 0.9267878 0.05551947 0.004700291 -0.100115545 -0.048492126
0.198816 -0.030365236 -0.051328108 -0.014095817 -0.036862724 1.0085194 -0.105070055 0.012240302
0.05152888 -0.0046267835 0.045652844 -0.11135384 0.019523757 -0.007889377 0.031560406 0.0727702
-0.021196017 -0.015741296 0.73350334 0.03329162 0.061124176 -0.05676751 -0.009577892 -0.03865478
-0.09342699 0.7069151 0.023173241 1.2015234 0.051525276 -0.11782754 -0.015266984 0.022052145
0.05263486 -0.038110808 1.4357365 -0.027613893 0.0044386736 1.1406661 0.005129146 0.07514709

fc2_adv.bias f4 [4]
00000000: 10e9 20c0 795e 38c0 7f1c 3ac0 6c97 1ec0
-2.514225 -2.8807662 -2.9079893 -2.477992
