easy-gridworld-weights.pth (torch, 37911 bytes, 6 tensors)

fc1.weight f4 [64, 2]
000000 7e dc 3e 3e eb 67 c0 3d b0 f0 2f bf 54 5f b9 3d
       0.18638799 0.09394821 -0.68726635 0.090513855
000010 06 25 1e bf 4a c5 11 bf 8f 41 15 be 64 9f 5e 3d
       -0.61775243 -0.56941664 -0.1457579 0.054351225
000020 1a dc 32 bf 59 01 12 3e 31 d5 a3 bf 2a 20 96 bf
       -0.698671 0.14258327 -1.2799436 -1.1728566
000030 3e 14 1d 3d 9f 3c d0 be 49 92 6c 40 fa fc 5b bf
       0.038349383 -0.4067125 3.6964285 -0.85932887
000040 d4 e9 5f be a0 c4 ae 3c 43 a6 2b 3e ad d3 0b 3e
       -0.21866542 0.021333992 0.16762643 0.13654967
000050 f0 c3 0f be 0c 57 24 be bf 38 69 3e a5 f8 3d 40
       -0.14039588 -0.16048831 0.22775553 2.968301
000060 39 0b 8f bf e7 61 23 c0 a8 74 ba bd 90 e4 25 be
       -1.11753 -2.5528505 -0.09104282 -0.16200471
000070 ee fb 83 bf 20 c4 86 bf 70 e9 35 3e 26 c1 06 bf
       -1.0311258 -1.0528603 0.1776483 -0.5263847
000080 3d e0 80 3f c1 7c b7 bf 86 27 9a 3f fc 82 67 bf
       1.0068432 -1.4334947 1.2043312 -0.9043424
000090 b0 52 e8 3f 5c 6f 4b bf 81 34 a5 be 36 0a 27 bf
       1.8150234 -0.79466796 -0.3226662 -0.65249956
0000a0 77 73 0a 3f 46 cc a3 3f bd 57 49 be 26 12 95 3e
       0.54082435 1.2796714 -0.19662376 0.2911541
0000b0 8f ac fe be 4a 7c 8e 3e 5a e7 03 bf de 0b 4d 40
       -0.49741027 0.278292 -0.5152489 3.2038493
0000c0 ce 47 4b bc 3b 5d 21 be 80 0c d3 bb d0 0c 3c 3d
       -0.012407256 -0.15758221 -0.006440699 0.045910656
0000d0 4a c4 30 3e a7 18 e2 be 31 c3 a8 3f 5f be 45 3e
       0.17262378 -0.44159433 1.3184568 0.19310902
0000e0 08 cd 03 bf a0 05 4a bd 48 a5 d4 3e 0d b6 58 be
       -0.5148473 -0.04932177 0.4153235 -0.21163197
0000f0 35 36 98 bd 5e da 1f 3d 57 f6 14 3e a8 09 fd be
       -0.07432214 0.03902661 0.14547096 -0.4942143
000100 e5 04 08 3f 7c 61 ba 3e 1a e0 7f 3f e6 95 37 be
       0.5313247 0.364025 0.99951327 -0.17928275
000110 ba 01 22 3f 8d 20 5b bf 1b 1c a0 3f 1d 6e dd 3e
       0.63283885 -0.85596544 1.2508577 0.43248072
000120 4b c3 53 bf 51 4c a8 bf 37 af c8 be a0 55 d9 3d
       -0.8271987 -1.314829 -0.39196178 0.10612035
000130 86 bd 79 bd ca 70 3a bd 88 88 c8 bd 72 16 79 be
       -0.06097176 -0.04551772 -0.09791666 -0.24324968
000140 a0 e6 e4 bc 24 41 17 be 44 1f 2d be 41 5f dc be
       -0.027942002 -0.14770943 -0.16906458 -0.43041423
000150 5c cd 12 bf 78 37 cf be a5 16 42 be 7a 6e 4a 3e
       -0.57344604 -0.40472007 -0.1895395 0.19768706
000160 83 55 49 bf fd 18 d7 3e ec 8a 27 bf ee d6 6c 3e
       -0.78646106 0.42011252 -0.6544635 0.23128864
000170 00 29 0d 40 a9 d1 59 bf 70 18 bb 3f d7 c9 c2 3f
       2.2056274 -0.8508554 1.4616833 1.5217847
000180 6a 2a 9f 3c 78 12 44 bd 12 a0 1d bf 52 55 25 bf
       0.019429404 -0.047869176 -0.6157237 -0.64583313
000190 d0 21 e9 be 80 c7 80 3c 58 cb eb 3e 40 a6 c6 3e
       -0.4553361 0.015720129 0.46053576 0.38798714
0001a0 d4 58 9e 3f 9b f1 83 3f db 65 5e 3f f4 d7 a0 3f
       1.2370858 1.0308107 0.8687417 1.2565904
0001b0 f4 80 84 3f 8c d5 26 3f c8 3c 11 be 10 42 a4 3d
       1.0351853 0.65169597 -0.14183342 0.08020413
0001c0 4b 94 8f 3f c3 43 db 3e 57 cb 06 40 bb 63 2b bf
       1.121713 0.42825136 2.1061609 -0.6694905
0001d0 50 68 8b 3d e8 4f 41 be 55 ac 07 be 6a 8a 98 bd
       0.068070054 -0.18878138 -0.13249333 -0.074482754
0001e0 bc 6a 35 be 3d b3 18 bf 57 87 73 be b6 d9 f6 3e
       -0.17716497 -0.59648496 -0.23782097 0.48212975
0001f0 aa 9b e4 3d 5f 0e f0 be 44 e5 7d bd d1 d5 ce bc
       0.11162503 -0.46885964 -0.061986223 -0.02524844

fc1.bias f4 [64]
000000 b6 d3 46 bf b1 6a 8b be 12 38 0e bf 26 b0 34 be
       -0.77666795 -0.27229837 -0.55554307 -0.1764532
000010 a1 0f ec be 90 3a 99 3e b7 e0 ec bd 00 6a 40 3e
       -0.46105674 0.29927492 -0.115662985 0.18790436
000020 d4 b6 1e bf 3e c6 4c bf 22 49 d2 be 6b 3c 88 bf
       -0.61997724 -0.79989994 -0.4107142 -1.0643438
000030 bf 1d 81 3e 80 33 e5 bd c6 4c 27 bb 10 1e 20 bf
       0.25218007 -0.111914635 -0.0025527938 -0.6254587
000040 4f 4b 17 be ab 78 57 40 46 95 0c 40 a0 31 12 bc
       -0.14774822 3.36674 2.196611 -0.008922964
000050 cb 82 99 bf 46 b6 61 bf 5f fd 5b bf bb 6e 73 bf
       -1.199304 -0.8816875 -0.8593349 -0.95090836
000060 a0 ed aa ba 8f a5 a7 be 28 70 05 bf 25 b3 ce bf
       -0.0013040788 -0.327435 -0.5212426 -1.614842
000070 80 63 3d bc 09 ac a0 bf 67 7c f7 bd cc 64 e2 be
       -0.011559367 -1.2552501 -0.12084275 -0.44217527
000080 c7 46 3c 40 82 ba 3a 40 f9 ad f3 bf 29 74 22 40
       2.94182 2.9176335 -1.9037467 2.5383399
000090 00 60 65 3f e0 f2 a7 be 82 3d 89 3f 5a 2a 5d be
       0.8959961 -0.32802486 1.0721896 -0.21598187
0000a0 20 0d ab bd 80 f6 fc ba 3e 26 d2 be a8 d2 1b bf
       -0.08352113 -0.0019299537 -0.410448 -0.6086831
0000b0 38 ce 33 40 be 60 32 bf a8 e6 18 40 3a 84 b5 3f
       2.8094616 -0.69678867 2.3890781 1.4180977
0000c0 90 a8 89 bd f6 a6 12 bc 34 b0 bf be cd 1a 0d c0
       -0.06721604 -0.008950939 -0.3743912 -2.2047608
0000d0 b6 65 63 bf b3 68 02 c0 a2 a1 21 40 29 fa c2 be
       -0.88827074 -2.0376403 2.5254903 -0.38081482
0000e0 6d 15 26 40 22 e3 30 40 af 09 34 bf b0 45 e3 bb
       2.5950577 2.763863 -0.70327276 -0.0069357976
0000f0 00 5b 85 bc 01 5a ba bf 00 dc ba be 00 98 8b b7
       -0.016278744 -1.4558717 -0.36495972 -1.6640872e-05

fc2.weight f4 [128, 64]
000000 a6 76 a5 be 05 6c 32 3e 80 04 78 3b a6 a1 67 bd
       -0.32317084 0.17424019 0.003784448 -0.056550644
000010 57 f5 57 be 3b 99 fe bc 54 48 79 3d 34 76 d2 be
       -0.21089683 -0.031078925 0.060859993 -0.41105807
000020 18 d3 ae bc 9b 03 09 bf 90 b6 3e 3d bb c0 a7 be
       -0.021340892 -0.53521127 0.046560824 -0.3276423
000030 cf b8 72 3d 12 93 b9 3d ad 90 4b be 5e 13 f8 3d
       0.05925828 0.090612546 -0.19879408 0.12113069
000040 5c 57 4b 3e 1b 2e 52 be ca da 8a 3d 77 a5 84 3c
       0.19857544 -0.205254 0.06780012 0.016192181
000050 f9 b8 8f bd 44 c7 32 be 93 87 a9 3b 22 d0 8c bc
       -0.070177026 -0.17458826 0.0051736324 -0.01718909
000060 e5 a9 2b be e8 90 d8 bc 32 6f 84 be cb b2 ad be
       -0.16764028 -0.026436284 -0.25866085 -0.3392547
000070 a0 06 8c bb b4 68 e2 be a2 38 58 3d d2 ba 3d bc
       -0.0042732507 -0.44220507 0.052788384 -0.011580186
000080 cb 72 0a be 70 a9 7e 3d f3 de 7e 3e 49 d0 5f be
       -0.13520353 0.062173307 0.24889736 -0.21856798
000090 2e b0 a9 bc 66 2e 89 3c 60 f1 f8 bd 6c ea ad 3d
       -0.020713892 0.016745757 -0.12155414 0.08491978
0000a0 46 7e 85 bd 2a 1e 50 be dc 3b 3f 3d 26 36 7c bd
       -0.06518225 -0.20324007 0.046687946 -0.061575077
0000b0 e0 33 fc bd f9 64 55 be 47 76 b5 3d 29 66 3f bd
       -0.12314582 -0.208393 0.0886045 -0.046728287
0000c0 21 01 4f bd 76 95 89 bd 90 60 fd 3d fd 57 0b bf
       -0.050538186 -0.067179605 0.123719335 -0.54431134
0000d0 cf 83 86 be 9e 78 b1 3b cd 92 a8 bd ea 8c d1 3d
       -0.26272437 0.00541599 -0.08231125 0.10231955
0000e0 f6 02 74 be 42 b5 8a 3d f4 e7 c6 3d 58 97 62 3e
       -0.23829255 0.067728534 0.0971221 0.22128046
0000f0 a4 87 61 3d 28 ca 6c be 0c d2 31 3c ce e8 db 3d
       0.055060998 -0.23123991 0.010853302 0.10737763
000100 03 49 89 bd 03 6a 75 3d 94 54 67 3d b7 37 ee bc
       -0.06703379 0.059915554 0.056477144 -0.029079301
000110 63 3e 9e 3d d0 dc 3a 3c a0 59 5b ba ec a7 63 3c
       0.07726743 0.011405185 -0.0008367542 0.013895016
000120 a4 e5 67 bd f4 ad 8b bd 92 b1 88 3d 76 0f 9a 3d
       -0.056615487 -0.06820288 0.06674494 0.0752248
000130 53 d0 9b bc 20 51 05 bd c0 f8 19 3c 54 bb 80 bd
       -0.019020235 -0.03254807 0.0093976855 -0.0628573
000140 cb 32 b5 bd 15 ea c2 3d dc 69 aa bd d9 18 b0 3d
       -0.088475786 0.09517304 -0.08320972 0.08598489
000150 d2 85 10 be 8f 36 fc bd 9e f1 31 3d 13 b2 da bd
       -0.14113548 -0.12315094 0.043443315 -0.10678496
000160 67 ff c4 3d 80 29 ab bd e0 c4 ca 3b 7b a3 bb 3d
       0.09619027 -0.08357525 0.00618802 0.09162041
000170 26 b0 cb bd 44 26 85 bc 91 84 bc 3d 68 ba 1e 3d
       -0.09945707 -0.016253598 0.092049725 0.03875199
000180 b8 58 c0 bb 5e 52 73 bd 20 70 0d 3d b8 ad b8 bd
       -0.005869951 -0.059404723 0.03453076 -0.09017509
000190 04 3a 2e 3d 80 7a 15 bb f6 65 6a 3c f8 1b 6b bd
       0.042535797 -0.0022808611 0.014306536 -0.05739972
0001a0 2c b5 65 bd 85 02 af bc 92 68 e6 3d aa c0 e6 bd
       -0.056080982 -0.021363506 0.11250414 -0.112672165
0001b0 54 6b cc bd c1 6e 84 3d cd 2a d6 bc 29 77 b1 bd
       -0.09981409 0.06466437 -0.026143456 -0.08665306
0001c0 44 21 a2 bd fe 32 d2 3d 14 c9 6e 3d 52 b8 d6 3d
       -0.07916501 0.10263632 0.05829723 0.10484375
0001d0 42 cd 75 bd 6c 6c 0b be 96 85 9e bd e4 a9 d8 3d
       -0.060010202 -0.13615578 -0.07740323 0.10579279
0001e0 c9 ba 2b bc 3e c0 14 bd e0 d1 34 bd e2 09 89 3b
       -0.010481545 -0.03631615 -0.044145465 0.0041820863
0001f0 3c d9 32 bd a0 4a 25 3d b8 3d 59 3d 88 c8 c7 bc
       -0.043664202 0.04035437 0.053037375 -0.024387613
000200 bc 6f a5 be 16 fd 09 3e 1c 7e 6b 3d 11 d8 e5 be
       -0.3231181 0.13475451 0.057493314 -0.44891408
000210 3f 3b 36 3e 8d 24 19 bf f5 43 c8 be 4b ad 86 be
       0.17796038 -0.598214 -0.39114347 -0.26304087
000220 04 c3 56 bd 0c ad 9d be 38 43 a5 bd be 2f 6e be
       -0.052432075 -0.30796087 -0.080694616 -0.232604
000230 8c a6 48 bd a0 82 c7 3c cb bd cf be a0 af 72 bc
       -0.048986956 0.024354279 -0.40574488 -0.01481238
000240 6e 24 14 bf 10 af cc be 47 62 3d 3e ee 7d 37 bf
       -0.5786809 -0.39977312 0.18494521 -0.7167653
000250 66 d6 eb bd cc 72 4f 3c c2 0b 9f bd 54 18 39 be
       -0.11515503 0.012661647 -0.077659145 -0.18075687
000260 6f 9e 82 be 2c 38 92 bd 2c 60 67 be 6a 68 b2 be
       -0.255115 -0.0713962 -0.2259528 -0.34845287
000270 f0 d9 89 3c 56 c9 b6 be 62 45 37 bd 58 26 a7 be
       0.016827554 -0.35700482 -0.044743903 -0.3264644
000280 a9 2f 81 3d 92 13 31 bd d6 d2 b8 be f2 b0 a4 be
       0.063079186 -0.043231554 -0.36098355 -0.3216625
000290 d6 51 08 bd 1e 4f 06 be 30 85 eb bc 28 ec f1 bd
       -0.03328117 -0.13116118 -0.028750032 -0.11812621
0002a0 b4 ca 94 bd 5a 73 0d bf 08 06 da 3c 33 59 91 3d
       -0.07265225 -0.5525414 0.026614204 0.070970915
0002b0 2c 94 23 3d b9 d7 84 be b6 8e 1a 3e 6a d1 34 3e
       0.03993623 -0.25945833 0.15093502 0.1765801
0002c0 66 bc 3e bf 81 20 17 be 86 a0 e4 bd b1 24 1a bf
       -0.74506223 -0.14758493 -0.1116343 -0.60212237
0002d0 60 73 6f 3e 36 8d 14 be 92 b9 31 bd 48 8b 55 bd
       0.23383856 -0.14506993 -0.043389864 -0.052134782
0002e0 9e 89 b1 bc 6c e4 82 3e 30 1f fc 3c 1b dd 18 bf
       -0.021672066 0.25564897 0.03077659 -0.5971238
0002f0 86 bd b9 3d 0b 69 98 be 2b 85 59 be c3 e1 22 3b
       0.09069352 -0.2976764 -0.21242206 0.0024853803
000300 80 9f 53 bd 72 74 53 bc b8 26 03 3d 74 07 66 3d
       -0.051665783 -0.012906181 0.032019347 0.05615945
000310 59 cd b8 bd 90 05 36 3d f2 7e ce bd 23 56 e5 39
       -0.09023542 0.0444389 -0.10082807 0.0004374246
000320 b4 db 1d bd 6f da b2 3c b8 47 03 bd c2 e8 cc bc
       -0.038539603 0.021832673 -0.03205082 -0.025013331
000330 86 18 25 3d d8 25 f8 bd 8e 85 c9 bd b0 5e 01 bd
       0.04030659 -0.12116593 -0.09839927 -0.03158444
000340 25 44 a9 bc ec 80 d2 bd a5 66 a4 3d 93 4f cd 3c
       -0.020662377 -0.10278496 0.080273904 0.025062358
000350 d6 36 bd bc a8 70 83 3d c8 a5 ac bd f9 79 c7 bd
       -0.023097437 0.06417972 -0.08430058 -0.09740061
000360 26 7f d5 3d 80 98 78 3d 58 33 af bd d5 be 09 be
       0.10424642 0.06069231 -0.08554715 -0.13451703
000370 c0 05 70 3c 00 83 48 bd 28 06 b0 3d 8e e6 98 bd
       0.014649808 -0.048953056 0.08594924 -0.0746585
000380 c1 66 86 bc fe e5 df bd a0 bd 0b ba af 4a ae bc
       -0.016406419 -0.109325394 -0.00053306855 -0.021275846
000390 1e 6f 86 3d 55 23 b1 3d b1 ac e4 bc 44 05 c9 3d
       0.06564163 0.08649317 -0.027914377 0.098154575
0003a0 00 e9 40 3a cf 43 24 bc e2 7e d1 3d 74 d2 da 3d
       0.00073589385 -0.010025932 0.10229279 0.10684672
0003b0 86 c3 44 3d fa 59 e3 3d ff fc fd bd 38 47 68 3b
       0.04803803 0.11101146 -0.12401771 0.003544284
0003c0 94 39 88 bb a0 29 d0 bb 18 9a 73 3d 95 13 af 3d
       -0.0041572545 -0.0063526183 0.059473127 0.08548657
0003d0 9e 75 80 3d b2 91 c9 bc 6b b9 07 be 2c 51 e7 3d
       0.06272434 -0.024605606 -0.13254325 0.11294779
0003e0 2c 8a fd bd d8 b1 13 3d 02 97 fc bd 10 12 1e 3c
       -0.1237987 0.036058277 -0.1233349 0.009647861
0003f0 6c e0 cf 3d c7 4a a9 3d fc 65 e6 bd f2 1b 86 bd
       0.10150227 0.08266216 -0.11249921 -0.06548299

fc2.bias f4 [128]
000000 36 af 4e be 87 d1 ae bd f4 a1 7a be 0d 3e 83 bd
       -0.20184025 -0.08536058 -0.24475843 -0.064083196
000010 5c 1e a7 bf 26 a4 98 3c 88 55 69 bf af 82 16 be
       -1.305614 0.01863296 -0.91146135 -0.1469829
000020 45 91 06 bd 54 78 07 be e5 fc 10 be 5f 70 5f 3d
       -0.032853384 -0.13229495 -0.14158972 0.054550525
000030 27 34 59 be 0b 5d f0 bc 70 b0 3d b9 36 71 1b bd
       -0.21211301 -0.029341241 -0.00018090173 -0.037949763
000040 96 ba 3e 3d ff 43 07 be ae 35 97 3c df 44 0b be
       0.04656466 -0.13209532 0.018458214 -0.13600491
000050 3b f1 9f bd 61 9d cc bd 9b aa 71 bf 0a 35 7b be
       -0.07809683 -0.09990955 -0.9440095 -0.24531952
000060 e2 81 8a 3c 00 b1 ba bb f8 1d 08 3d 8d 8f cc bc
       0.016907636 -0.0056973696 0.033231705 -0.024970794
000070 a5 65 5e be bc 7e e6 3d e5 fc 98 3d 80 3f d1 bb
       -0.21718462 0.112546414 0.07470111 -0.0063857436
000080 55 d2 1e bf 38 5a 13 bb 5f 15 4a 3f 9f 2d 11 be
       -0.6203969 -0.0022484194 0.7893886 -0.1417756
000090 b4 4e ec bd 50 de 26 be 00 65 ab ba 64 be d0 bd
       -0.11538449 -0.16295743 -0.0013076365 -0.10192564
0000a0 ee 5f 9b 3d 82 e7 f5 bc b6 95 35 bf c4 5d 70 3d
       0.075866565 -0.030017618 -0.70931566 0.058683172
0000b0 f9 43 db be e4 12 bf bd 48 fa e5 be 9c 54 57 bd
       -0.42825297 -0.09329775 -0.44917512 -0.052570924
0000c0 30 ae 4a be 17 6f 59 bd b6 5f a4 3c 4f 05 9f 3c
       -0.1979301 -0.05308446 0.02006517 0.019411711
0000d0 d8 59 be bd bf e9 85 be b3 5e b5 3f 83 36 8a 3d
       -0.0929448 -0.26154897 1.4169525 0.067486785
0000e0 57 47 13 be fb 2a 10 3b 1a e2 8b bd 3f 1f c9 bb
       -0.14382683 0.0021998275 -0.06830235 -0.006137758
0000f0 12 fb f9 bc 2c 38 0a 3d ce af 00 be 01 54 94 bd
       -0.030515227 0.033744976 -0.12567064 -0.07242585
000100 03 97 66 3d be a6 02 be b7 fb 98 3d 3f 65 5c be
       0.05629636 -0.1275892 0.07469886 -0.21522997
000110 40 83 88 bf e4 e9 fd bd a0 e1 28 be 0d aa 20 bf
       -1.0665054 -0.12398127 -0.16492319 -0.62759477
000120 22 44 16 be 50 b5 78 3d 51 e7 83 bd 01 62 7e be
       -0.14674428 0.060719788 -0.064406045 -0.24842073
000130 da 1b 0d 3d 5f 54 fb 3c 30 22 98 be a2 40 d6 bd
       0.03445039 0.03067988 -0.29713583 -0.104615465
000140 af 3e ed bd 39 e2 23 3e 78 60 a6 3d 1b 7b 97 bd
       -0.115842216 0.16004266 0.08123869 -0.073965274
000150 8d 93 e0 3c 1d e1 41 3e de 77 9f bb 56 2b 61 bd
       0.027414108 0.1893353 -0.004866584 -0.05497297
000160 80 87 c9 3d cf 44 4d bd 1b 30 77 bd 72 d9 97 3e
       0.09840298 -0.05011445 -0.06034861 0.29658085
000170 22 5f 71 bd f3 4c a7 bd fe 6a 85 3d 88 0d fd bc
       -0.058928616 -0.08168974 0.06514548 -0.030890241
000180 e1 f2 32 be 42 33 fa bd b1 ba 71 3d 1d c0 a6 3f
       -0.17475463 -0.12216808 0.059015933 1.3027378
000190 31 76 39 be 79 fc c4 bd 09 9d 86 3d 75 91 a9 3d
       -0.18111493 -0.09618468 0.06572921 0.08279697
0001a0 08 4a a6 bd 96 05 3c bf 24 ee 88 3d 3d 59 93 bd
       -0.08119589 -0.73446023 0.06686047 -0.07194755
0001b0 9a 78 a2 bd 65 14 fc 3d 09 6b b7 3a 5f 7b 67 be
       -0.07933159 0.123085774 0.0013993691 -0.22605656
0001c0 fa 69 9e bf 94 24 20 bd 44 a3 28 3b 36 61 9b bd
       -1.2376091 -0.039097384 0.002573208 -0.07586901
0001d0 d7 2e c4 3c 30 da f9 bc 04 b3 9f bd fc 9f a9 bd
       0.023948116 -0.030499548 -0.077978164 -0.08282468
0001e0 bf 65 20 3e 23 0d db bd d1 c9 c6 3d 27 9b 85 3e
       0.15663813 -0.10695865 0.09706462 0.26094934
0001f0 b9 52 a5 3d 16 86 f9 3e b6 7e 6f 3d 4c d2 b1 be
       0.08072419 0.48735112 0.05847045 -0.34730756

fc3.weight f4 [4, 128]
000000 dd 1e ae 3e 19 24 11 bd c0 80 9d 3e 40 9d af 3c
       0.34007922 -0.035434816 0.3076229 0.021437287
000010 9e 37 ff 3e b0 79 39 3b 13 a5 b8 3e a7 d9 ab 3d
       0.4984712 0.0028301291 0.36063442 0.08391123
000020 e6 2f a4 bd e9 01 21 3e b0 fb ca 3a 8b 3d 4e bd
       -0.080169484 0.15723385 0.0015486386 -0.05035166
000030 e0 e3 29 3c a7 39 ca 3c 7f 45 98 3d aa 8e 8c 3d
       0.010369271 0.024685694 0.0743513 0.068631485
000040 5a 99 05 3e 2d 49 d2 3e 1a 19 59 be 98 d9 02 3e
       0.1304678 0.41071454 -0.21200982 0.12778318
000050 ab 06 6f 3e 9d 84 c1 3d 3f fe d7 3e b2 f9 35 bd
       0.23342387 0.09449122 0.42186162 -0.04442758
000060 6f 62 bc 3c b9 8b 0c 3e e8 bb 27 3e 0f 38 32 3d
       0.022996156 0.13725175 0.16380274 0.043510493
000070 be dc e0 3d 28 76 e7 3d 64 80 ad bd b1 35 4a 3d
       0.10979603 0.113018334 -0.08471754 0.04936761
000080 5e b4 6c 3e 94 67 77 3c 48 13 cb 3e 82 c9 64 3e
       0.2311568 0.015100379 0.39663148 0.22342494
000090 09 65 aa bd ec 58 5e 3d f9 a6 9e 3e 10 a6 82 bb
       -0.08320052 0.05428402 0.30986765 -0.0039870813
0000a0 45 7d 0b 3e b2 cd 23 3e 0c 61 d4 bc 83 fe 97 3e
       0.13622005 0.15996435 -0.025925182 0.29686365
0000b0 dd bf 7b be c0 f9 dd bc 49 60 80 3d 90 8d 8d 3b
       -0.24584909 -0.02709663 0.06268365 0.004319854
0000c0 70 7b 28 bd b4 11 50 3e 73 95 c8 3c a5 ad d1 3c
       -0.041133344 0.20319253 0.024485325 0.025595495
0000d0 24 80 0a bb fa f5 9a 3e 5a 1e 70 c0 6a db 73 3d
       -0.0021133507 0.3026579 -3.7518525 0.05953542
0000e0 5e 00 43 bd 9a a4 9f 3e 26 6f 31 bd 6f b3 80 bc
       -0.047607772 0.3118027 -0.04331889 -0.01571056
0000f0 bc d7 49 3e 28 cb fd 3b c9 ba b6 b9 37 a1 85 3d
       0.19711202 0.0077451654 -0.0003485291 0.0652489
000100 d6 f5 a1 3e 04 3f 26 bc 86 0a bc 3d ab cd 31 3e
       0.3163287 -0.01014686 0.09181695 0.17363612
000110 b2 c3 ab 3c 48 9b 7d 3d 39 ba 90 3e 17 75 5f 3f
       0.020967338 0.061915666 0.28267077 0.8728804
000120 4c 10 31 3e bb 1f 8c 3d 90 ef cc 3e af 0a 5c 3e
       0.17291373 0.068419896 0.40026522 0.2148845
000130 64 f7 48 bd 15 18 7c 3e f2 41 ad 3d f7 8f d0 3e
       -0.049064055 0.24618562 0.08459844 0.40734836
000140 f1 e8 e4 bc 1c 49 22 3e 37 c6 9d 3e fb 9f 0e 3d
       -0.027943106 0.15848202 0.30815288 0.034820538
000150 de d9 21 bd 47 93 2a 3e 02 ce db 3d ba a2 9c 3d
       -0.039514415 0.16657744 0.10732652 0.07648225
000160 6f 14 7d 3e ed e8 17 3e 61 bc 2e bc 61 4f 22 3f
       0.24714826 0.14834948 -0.01066503 0.6340237
000170 26 35 b0 3e 6f 30 c0 3f 9a 83 94 bc 45 a5 96 3d
       0.3441555 1.5014781 -0.018129159 0.073557414
000180 34 51 56 3e 10 d0 10 bc 20 91 f8 3c ad f9 4b 3f
       0.20929414 -0.008838668 0.030342638 0.7967785
000190 60 2a 44 3e 98 38 15 bd 70 39 65 bd 66 e0 83 bc
       0.1915679 -0.036430925 -0.05596298 -0.016098212
0001a0 31 5a b2 3d 74 b7 38 3e 96 6a 0a bd 24 90 85 3e
       0.08708609 0.18038732 -0.033793055 0.26086533
0001b0 61 e7 1a 3d dd a2 b0 3e 29 85 9b bd fb 35 4f bd
       0.037818316 0.34499255 -0.07593758 -0.05058859
0001c0 c4 ca 2b bf 1c 73 16 3d cc ac 1f 3c 9e 95 9a 3e
       -0.6710627 0.03673087 0.009745788 0.30192274
0001d0 94 7d bb 3d cc 4d 9a 3e 45 f7 10 bd 74 2e f5 3b
       0.091548115 0.3013748 -0.035392065 0.0074823443
0001e0 5f c2 0b 3e f9 4e 8f bc 78 6d 89 3d 37 7b 7a 3e
       0.13648365 -0.017493712 0.06710333 0.24461065
0001f0 6e 51 99 3e 03 7c f0 bf 9e 50 63 3e 32 d3 0e 3d
       0.29944938 -1.8787845 0.22198722 0.03486938
000200 1f a3 dc 3c 00 66 36 3d 1b bf bf 3c 94 9a 50 3d
       0.026933251 0.04453087 0.023406556 0.050928667
000210 40 7c 9f ba 92 7a 54 3d 14 21 5c 3d 8a 4b 25 3c
       -0.0012167767 0.051874705 0.053742483 0.010088811
000220 03 25 93 3d ce 8c bd 3c 6b cd 9b bd a8 37 13 3d
       0.07184794 0.02313843 -0.0760754 0.03594175
000230 b8 17 00 3e d6 90 05 bd 37 96 c0 3c c2 a0 0a 3d
       0.12509048 -0.03260883 0.023509128 0.033844717
000240 db 2d 4e 3e 22 3b 89 3d 3b 51 29 3e 91 be d9 3e
       0.2013468 0.06700732 0.16534893 0.42528203
000250 be b4 89 3d ad 59 83 3d 9a 4a 16 be 9f f6 fe 3d
       0.06723927 0.06413589 -0.14676896 0.12449383
000260 40 8c b5 3b 7c 49 ac 3d 0a cb 16 3e 62 99 20 bd
       0.0055404007 0.084124535 0.14725891 -0.039208777
000270 d4 28 b3 3e 78 9c 6c 3c 87 ba ed bc f4 40 31 bd
       0.34992087 0.014441602 -0.029019607 -0.043274835
000280 9e 68 71 3e 57 e0 aa bd 48 a7 7d bf da 01 13 3e
       0.23575065 -0.08343571 -0.99083376 0.14356175
000290 ff 09 94 3d 92 5d b5 3e 23 7a 11 3f 60 14 90 bd
       0.07228469 0.3542295 0.5682699 -0.07035136
0002a0 d2 4b 0f 3d 8b 42 ac 3c 23 67 8a 3f 1c 00 f1 3c
       0.034984417 0.021027824 1.0812725 0.029418997
0002b0 67 8a fa bc 15 ad 61 bd 90 13 c1 be af 72 8c bd
       -0.030583574 -0.055096705 -0.37710238 -0.06857812
0002c0 38 4b d1 3d e0 36 06 3e 4b 0c 33 3c 7e 87 f8 3d
       0.10219425 0.1310687 0.010928224 0.12135218
0002d0 51 19 dd ba 9b 5f 0d be 4b 5a ce bc c8 c2 ad 3d
       -0.0016868507 -0.13806002 -0.02518954 0.08484417
0002e0 f0 2d 7c bc ae cb 8e 3d 40 5a 8f bc bc ae 84 bc
       -0.015391812 0.069724426 -0.01749909 -0.016196601
0002f0 5d 02 4a 3e 59 6b 9d 3d c0 8d f5 ba 97 42 cb bb
       0.19727464 0.076864906 -0.0018734261 -0.0062030065
000300 6b 17 c2 3d f0 c5 6a bd ac 47 21 3d 5c 2b cd 3d
       0.09477123 -0.057317674 0.039374992 0.10018036
000310 d4 b6 7f bd dd 85 90 3c c3 ee 83 3d e1 ad 92 bf
       -0.062430218 0.017641956 0.064420246 -1.1459314
000320 da 3f 0a 3d e6 cb a8 bc 5a dc 16 bc 76 f9 86 3e
       0.0337523 -0.020605039 -0.009207809 0.263622
000330 41 87 6e bc 9b 0d 04 3e 00 98 87 38 80 1c fc 38
       -0.014558614 0.12895815 6.465614e-05 0.00012021605
000340 2e 4a 86 3d 72 b8 70 3d 8e de 66 3d 33 6e a8 3d
       0.065571174 0.05876965 0.05636459 0.08224144
000350 53 25 16 3e 4f 24 6e 3f 7c bb 4c 3c c6 de 92 bd
       0.14662676 0.9302415 0.012495872 -0.07171397
000360 f2 18 f4 3d 76 f4 09 3d 70 b7 45 3c a1 f2 ce 3e
       0.119188204 0.0336804 0.012067661 0.40419486
000370 5e 27 31 3c 11 96 07 3f d0 dd 3e bc 89 57 97 3d
       0.0108126085 0.5296336 -0.011649564 0.07389743
000380 35 89 cf 3d 98 0c c8 3c f7 89 41 bc 9c ac 60 3f
       0.10133592 0.024420068 -0.011812679 0.8776338
000390 a7 05 c6 bd 1a 36 1d 3d f0 86 09 3d 4c b7 e2 3b
       -0.09669047 0.038381673 0.033575952 0.0069188233
0003a0 08 d0 05 bc 41 6c 33 3f 10 30 e6 bc 32 e4 46 3d
       -0.008167274 0.7008706 -0.02809909 0.048557468
0003b0 2a 6d de bd 23 f8 29 3d 71 85 65 bc 2e ac 2d 3d
       -0.10860665 0.041496407 -0.014008866 0.04240053
0003c0 52 30 aa 3e d6 63 98 3c 07 8f 3a 3b ed c4 92 bd
       0.3323999 0.018602293 0.0028466599 -0.07166467
0003d0 80 16 59 3d b9 32 92 3e de 0e 46 3c aa 31 97 bd
       0.052999973 0.28554323 0.012088506 -0.073825195
0003e0 38 64 12 3d ba e2 14 bd 62 85 49 bd 60 fd 74 bf
       0.035740107 -0.036349036 -0.04919947 -0.9569912
0003f0 54 60 94 3d 1b e7 73 be f8 ba e7 3d 36 c9 c6 bd
       0.07244936 -0.23818628 0.11314958 -0.09706347

fc3.bias f4 [4]
000000 50 0c 9d 3e 9c 30 10 3f 1e 56 0a 3f 08 90 8b 3f
       0.30673456 0.5632417 0.54037654 1.090333
