working-easy-gridworld-weights.pth (torch, 37911 bytes, 6 tensors)

fc1.weight f4 [64, 2]
000000 04 d9 15 36 4a 05 48 b7 79 67 6b 41 1e 68 5c 41
       2.232905e-06 -1.192216e-05 14.712762 13.775419
000010 67 67 6b 41 1b 68 5c 41 da ab 7d b6 6b 23 69 b3
       14.712745 13.775416 -3.7799969e-06 -5.4281752e-08
000020 6e 67 6b 41 1c 68 5c 41 85 67 6b 41 30 68 5c 41
       14.712751 13.775417 14.712773 13.775436
000030 5e 67 6b 41 1e 68 5c 41 7b 67 6b 41 25 68 5c 41
       14.712736 13.775419 14.712764 13.775426
000040 5a 67 6b 41 0a 68 5c 41 53 67 6b 41 1f 68 5c 41
       14.712732 13.7754 14.712726 13.77542
000050 81 67 6b 41 16 68 5c 41 42 67 6b 41 28 68 5c 41
       14.7127695 13.775412 14.712709 13.775429
000060 6a 67 6b 41 12 68 5c 41 57 c5 19 b6 09 9b 37 b7
       14.712748 13.775408 -2.2913644e-06 -1.0943747e-05
000070 5a 67 6b 41 29 68 5c 41 5e 67 6b 41 18 68 5c 41
       14.712732 13.77543 14.712736 13.7754135
000080 53 67 6b 41 2a 68 5c 41 6a 67 6b 41 25 68 5c 41
       14.712726 13.775431 14.712748 13.775426
000090 7c 67 6b 41 2b 68 5c 41 dc 02 eb b6 0a 9f 35 b7
       14.712765 13.775432 -7.0038786e-06 -1.082547e-05
0000a0 63 67 6b 41 1a 68 5c 41 ad 70 4b b7 ea 38 ab b6
       14.712741 13.775415 -1.2125977e-05 -5.102823e-06
0000b0 7c 67 6b 41 1c 68 5c 41 85 67 6b 41 25 68 5c 41
       14.712765 13.775417 14.712773 13.775426
0000c0 7c 67 6b 41 1b 68 5c 41 7e 67 6b 41 13 68 5c 41
       14.712765 13.775416 14.712767 13.775409
0000d0 4c 67 6b 41 2b 68 5c 41 6e 67 6b 41 2b 68 5c 41
       14.712719 13.775432 14.712751 13.775432
0000e0 e2 06 79 b7 a9 f4 2d b7 86 67 6b 41 12 68 5c 41
       -1.4843159e-05 -1.0368568e-05 14.712774 13.775408
0000f0 7b 67 6b 41 2b 68 5c 41 44 67 6b 41 fd 67 5c 41
       14.712764 13.775432 14.712711 13.775388
000100 6b 59 43 b7 6b 8d 09 b7 29 2a fa b6 c9 b3 09 b7
       -1.1643725e-05 -8.198763e-06 -7.4554887e-06 -8.207696e-06
000110 63 67 6b 41 18 68 5c 41 1d 69 1b b6 83 e9 ef 35
       14.712741 13.7754135 -2.3157984e-06 1.7874848e-06
000120 5e 67 6b 41 29 68 5c 41 7b 67 6b 41 18 68 5c 41
       14.712736 13.77543 14.712764 13.7754135
000130 85 67 6b 41 1e 68 5c 41 6e 67 6b 41 18 68 5c 41
       14.712773 13.775419 14.712751 13.7754135
000140 17 ab cf b4 f9 1b 29 b7 7e 67 6b 41 1a 68 5c 41
       -3.868124e-07 -1.0079698e-05 14.712767 13.775415
000150 81 67 6b 41 0a 68 5c 41 7e 67 6b 41 2a 68 5c 41
       14.7127695 13.7754 14.712767 13.775431
000160 5a 67 6b 41 25 68 5c 41 81 67 6b 41 16 68 5c 41
       14.712732 13.775426 14.7127695 13.775412
000170 6a 67 6b 41 18 68 5c 41 5a 67 6b 41 0a 68 5c 41
       14.712748 13.7754135 14.712732 13.7754
000180 ac ea d6 35 a7 7b 62 b6 6a 67 6b 41 1a 68 5c 41
       1.6012541e-06 -3.37486e-06 14.712748 13.775415
000190 6a 67 6b 41 22 68 5c 41 5a 67 6b 41 27 68 5c 41
       14.712748 13.775423 14.712732 13.775428
0001a0 79 67 6b 41 1e 68 5c 41 5a 67 6b 41 26 68 5c 41
       14.712762 13.775419 14.712732 13.775427
0001b0 6a 67 6b 41 29 68 5c 41 12 d2 3f b5 6c 71 a2 35
       14.712748 13.77543 -7.145874e-07 1.2102951e-06
0001c0 69 67 6b 41 2e 68 5c 41 51 67 6b 41 25 68 5c 41
       14.712747 13.7754345 14.712724 13.775426
0001d0 5a 67 6b 41 26 68 5c 41 57 45 13 b6 93 44 47 b6
       14.712732 13.775427 -2.1945068e-06 -2.9693226e-06
0001e0 7f 67 6b 41 30 68 5c 41 5e 67 6b 41 1c 68 5c 41
       14.712768 13.775436 14.712736 13.775417
0001f0 6a 67 6b 41 2b 68 5c 41 5a 67 6b 41 29 68 5c 41
       14.712748 13.775432 14.712732 13.77543

fc1.bias f4 [64]
000000 14 26 36 b7 f9 c9 05 42 f8 c9 05 42 96 a0 53 b7
       -1.0856911e-05 33.44724 33.447235 -1.2613969e-05
000010 f8 c9 05 42 ee c9 05 42 f6 c9 05 42 f9 c9 05 42
       33.447235 33.447197 33.447227 33.44724
000020 ee c9 05 42 ef c9 05 42 f9 c9 05 42 ee c9 05 42
       33.447197 33.4472 33.44724 33.447197
000030 f8 c9 05 42 86 e6 15 b7 f4 c9 05 42 f8 c9 05 42
       33.447235 -8.934765e-06 33.44722 33.447235
000040 e1 c9 05 42 f8 c9 05 42 f8 c9 05 42 e6 f0 62 b7
       33.447147 33.447235 33.447235 -1.3526738e-05
000050 f7 c9 05 42 72 3f 57 b7 ef c9 05 42 ee c9 05 42
       33.44723 -1.2829771e-05 33.4472 33.447197
000060 f6 c9 05 42 f8 c9 05 42 ef c9 05 42 f7 c9 05 42
       33.447227 33.447235 33.4472 33.44723
000070 03 60 a4 b6 f7 c9 05 42 f4 c9 05 42 d7 c9 05 42
       -4.898758e-06 33.44723 33.44722 33.44711
000080 13 a6 cf b6 fa 41 87 b7 f8 c9 05 42 f1 70 17 b7
       -6.1884143e-06 -1.6123977e-05 33.447235 -9.026598e-06
000090 dc c9 05 42 f9 c9 05 42 e4 c9 05 42 ef c9 05 42
       33.44713 33.44724 33.44716 33.4472
0000a0 22 38 b2 b5 ee c9 05 42 ee c9 05 42 f7 c9 05 42
       -1.327837e-06 33.447197 33.447197 33.44723
0000b0 f8 c9 05 42 ef c9 05 42 f9 c9 05 42 f7 c9 05 42
       33.447235 33.4472 33.44724 33.44723
0000c0 c9 31 a5 b6 f9 c9 05 42 f8 c9 05 42 eb c9 05 42
       -4.923179e-06 33.44724 33.447235 33.447186
0000d0 f8 c9 05 42 ec c9 05 42 f7 c9 05 42 f7 d8 90 b6
       33.447235 33.44719 33.44723 -4.3167925e-06
0000e0 f7 c9 05 42 ee c9 05 42 dc c9 05 42 fe 93 b6 b3
       33.44723 33.447197 33.44713 -8.501955e-08
0000f0 f4 c9 05 42 f8 c9 05 42 f8 c9 05 42 ec c9 05 42
       33.44722 33.447235 33.447235 33.44719

fc2.weight f4 [128, 64]
000000 5d 9f 34 36 49 4b 4e 35 1b 17 37 35 df 86 3e b6
       2.6914852e-06 7.6850534e-07 6.8206435e-07 -2.8390712e-06
000010 bf 70 ed b5 28 2e 2e b6 bd e9 d4 b5 80 6b 61 b6
       -1.769069e-06 -2.5954887e-06 -1.5863258e-06 -3.3590186e-06
000020 a1 d3 6d 36 aa 1a 35 b5 2e 4a ca 35 60 c3 6e b5
       3.5438936e-06 -6.7466556e-07 1.5071762e-06 -8.8946217e-07
000030 8f 31 9c 35 0e e8 28 36 fc ea 95 b5 cb b9 21 36
       1.1637329e-06 2.5169024e-06 -1.1169755e-06 2.4099015e-06
000040 75 c2 12 36 4d 4a d6 35 45 6d 84 b6 f1 4a 1d b6
       2.1868884e-06 1.5965867e-06 -3.946627e-06 -2.3438445e-06
000050 b6 19 a8 b5 05 28 ac b5 49 ae 29 b6 c0 28 65 b5
       -1.2524458e-06 -1.2826646e-06 -2.528441e-06 -8.5368447e-07
000060 3b 8c b4 b5 e4 21 49 b6 57 33 04 36 ac 03 4c b6
       -1.3451858e-06 -2.997106e-06 1.9699416e-06 -3.0400506e-06
000070 72 16 16 b6 38 f4 83 35 4a cf c2 35 ba bc 97 b5
       -2.2364807e-06 9.831338e-07 1.4514455e-06 -1.1305303e-06
000080 4d eb 82 b5 6a cb 38 b6 02 ec 79 35 29 a6 ed b4
       -9.754236e-07 -2.753654e-06 9.3103165e-07 -4.4265587e-07
000090 bc 45 3f 35 5a 06 5d b6 f1 15 81 b6 1c 8c 7e b6
       7.125452e-07 -3.2935263e-06 -3.847054e-06 -3.7930504e-06
0000a0 fb 72 a4 35 ae f5 07 36 18 7a 57 35 b1 8f 6b b5
       1.2252416e-06 2.0259572e-06 8.027141e-07 -8.775342e-07
0000b0 73 c6 0a 36 df 3c 3d b6 c5 e1 7a b5 df a7 65 36
       2.0679115e-06 -2.8198626e-06 -9.3460795e-07 3.4221373e-06
0000c0 d8 cd 10 35 46 1c a3 34 fa 50 25 b6 67 d7 9c b5
       5.394372e-07 3.0381688e-07 -2.463405e-06 -1.1685596e-06
0000d0 3e 11 43 35 ab 56 a8 b5 b0 5c 65 b5 a2 7a 2a b4
       7.266825e-07 -1.2542199e-06 -8.5444026e-07 -1.5877097e-07
0000e0 28 2e 7e b4 b7 68 0e 36 98 8f 0d 36 a2 26 e7 b5
       -2.3672385e-07 2.12206e-06 2.109422e-06 -1.7222085e-06
0000f0 25 d4 f2 b5 3d 53 0a b6 5f b0 00 b5 21 57 5b 35
       -1.8092147e-06 -2.0612054e-06 -4.794037e-07 8.1710647e-07
000100 e4 37 bc 35 1d 15 f8 b5 cd 79 9d b5 03 63 4f b5
       1.4023358e-06 -1.8483585e-06 -1.173286e-06 -7.725759e-07
000110 0f e2 f0 34 4e 5b 2c b6 36 13 94 b6 8d fd d0 b5
       4.4867963e-07 -2.5683144e-06 -4.41298e-06 -1.5571001e-06
000120 f4 57 8d 35 a1 f2 c1 b5 1f ed ab b6 ae de 1c 36
       1.0530916e-06 -1.4450235e-06 -5.1238017e-06 2.3375428e-06
000130 da 06 91 34 28 ea d6 35 43 22 81 36 2c 88 8b b5
       2.701334e-07 1.6012391e-06 3.848488e-06 -1.0395938e-06
000140 9b 8a 93 b6 22 ee 8c 36 35 d7 e9 b6 aa d1 ed 35
       -4.397077e-06 4.2000474e-06 -6.9689945e-06 1.7718896e-06
000150 6c 6b 98 35 6a 66 27 36 88 f9 9d b6 f2 73 13 b6
       1.1356146e-06 2.4944552e-06 -4.708014e-06 -2.1972196e-06
000160 63 b5 05 b6 79 79 06 b7 61 e6 9f 36 b0 3d 7e 36
       -1.9924125e-06 -8.015305e-06 4.765389e-06 3.7884856e-06
000170 19 69 fe b4 f2 c2 a6 b5 c8 31 9f b6 6b 58 36 36
       -4.7387655e-07 -1.24247e-06 -4.7443646e-06 2.717158e-06
000180 f6 0d b0 b4 cc 8b ef b3 27 d3 3a b6 39 96 38 b6
       -3.2792713e-07 -1.1154734e-07 -2.7839067e-06 -2.7505578e-06
000190 56 e9 c7 36 ab 75 13 35 f3 40 08 33 87 0a e6 34
       5.957826e-06 5.4932997e-07 3.172404e-08 4.2848498e-07
0001a0 ff 2e de b4 33 43 c3 b6 13 a5 49 b6 c6 58 08 b7
       -4.1384916e-07 -5.819276e-06 -3.004742e-06 -8.126901e-06
0001b0 c4 49 2d 36 a0 3a 96 b6 b3 ed 8e 36 5e e7 df 35
       2.5821946e-06 -4.477173e-06 4.2596016e-06 1.6682131e-06
0001c0 f7 61 9a b6 3b bc 6a 36 06 32 bc 36 e9 10 ae 35
       -4.6009623e-06 3.4978282e-06 5.60866e-06 1.2968932e-06
0001d0 14 cd 5a 36 3b a9 21 b6 05 5b 34 36 3f 3a ec b5
       3.2603903e-06 -2.4089375e-06 2.687507e-06 -1.7600322e-06
0001e0 6b 63 1e 36 d5 4a 72 36 92 ae a0 36 b0 cc 6c b5
       2.3601704e-06 3.6104368e-06 4.7886942e-06 -8.821471e-07
0001f0 00 74 2e b7 b0 38 b6 b5 59 de 06 36 65 ba 1a b6
       -1.0398217e-05 -1.3576555e-06 2.009698e-06 -2.3056284e-06
000200 aa c5 35 b6 ef c9 05 42 ee c9 05 42 95 28 61 b4
       -2.7086157e-06 33.4472 33.447197 -2.0969522e-07
000210 ee c9 05 42 ee c9 05 42 ef c9 05 42 ef c9 05 42
       33.447197 33.447197 33.4472 33.4472
000220 eb c9 05 42 ee c9 05 42 f2 c9 05 42 ed c9 05 42
       33.447186 33.447197 33.447212 33.447193
000230 ef c9 05 42 58 94 6a b5 ee c9 05 42 ee c9 05 42
       33.4472 -8.738766e-07 33.447197 33.447197
000240 e3 c9 05 42 ef c9 05 42 ef c9 05 42 23 4a d3 35
       33.447155 33.4472 33.4472 1.5742302e-06
000250 ee c9 05 42 65 f8 62 b5 ee c9 05 42 ee c9 05 42
       33.447197 -8.455302e-07 33.447197 33.447197
000260 f0 c9 05 42 f4 c9 05 42 ee c9 05 42 ef c9 05 42
       33.447205 33.44722 33.447197 33.4472
000270 1e 9b 4e 35 f2 c9 05 42 ef c9 05 42 d7 c9 05 42
       7.6966705e-07 33.447212 33.4472 33.44711
000280 8f ac 3f 36 86 e6 00 b6 ee c9 05 42 bb 41 33 34
       2.856166e-06 -1.9207669e-06 33.447197 1.6694587e-07
000290 e0 c9 05 42 f0 c9 05 42 ed c9 05 42 f0 c9 05 42
       33.447144 33.447205 33.447193 33.447205
0002a0 af e2 bf b5 ee c9 05 42 ee c9 05 42 ef c9 05 42
       -1.4296583e-06 33.447197 33.447197 33.4472
0002b0 ee c9 05 42 f0 c9 05 42 ef c9 05 42 ee c9 05 42
       33.447197 33.447205 33.4472 33.447197
0002c0 a1 35 34 36 ef c9 05 42 ee c9 05 42 e9 c9 05 42
       2.6853306e-06 33.4472 33.447197 33.447178
0002d0 ef c9 05 42 eb c9 05 42 ef c9 05 42 d1 5a 27 b5
       33.4472 33.447186 33.4472 -6.2344503e-07
0002e0 ef c9 05 42 ee c9 05 42 dd c9 05 42 48 7e 93 35
       33.4472 33.447197 33.447132 1.0989106e-06
0002f0 ef c9 05 42 ee c9 05 42 ee c9 05 42 ee c9 05 42
       33.4472 33.447197 33.447197 33.447197
000300 0e e8 f6 35 4b b3 75 35 5d 75 21 b6 b2 97 f5 34
       1.8395965e-06 9.153052e-07 -2.4059184e-06 4.574518e-07
000310 50 05 9a 35 11 c3 34 b6 25 53 3b 36 c0 c2 07 b6
       1.147544e-06 -2.6935634e-06 2.7913568e-06 -2.0229927e-06
000320 36 77 1c 36 fe 3f dd b5 bf 11 07 b6 f0 86 8f 35
       2.3315201e-06 -1.6484407e-06 -2.0126897e-06 1.0693602e-06
000330 ea e1 17 b6 d2 1b 03 b6 8f a5 18 b6 ee 45 b1 b5
       -2.2632253e-06 -1.9536715e-06 -2.2746133e-06 -1.320788e-06
000340 30 67 d4 b5 6c 20 e0 b4 7a cb d2 b5 aa 99 7f 34
       -1.5825262e-06 -4.174684e-07 -1.5705439e-06 2.3804628e-07
000350 e4 ff ec b5 70 8e 13 b6 00 0d 85 34 96 1d 84 b4
       -1.7657844e-06 -2.1987616e-06 2.478264e-07 -2.4608443e-07
000360 9d a5 b3 b5 e4 ea 1a b5 8d fc a1 b5 2f 3c 3f 35
       -1.3384739e-06 -5.771128e-07 -1.2068937e-06 7.1240623e-07
000370 27 d4 8c b4 55 1f 22 b6 b7 f5 01 b5 5e 95 f4 b5
       -2.6231393e-07 -2.4158119e-06 -4.8413807e-07 -1.8222888e-06
000380 71 01 a9 31 e6 a9 00 b6 9d 65 a0 35 9a f8 0b 36
       4.918711e-09 -1.917238e-06 1.1950502e-06 2.085732e-06
000390 59 1c e5 34 af 89 eb b3 40 4c f9 b4 30 da 2a b6
       4.26752e-07 -1.0968085e-07 -4.6435343e-07 -2.5458976e-06
0003a0 f8 df 0c 35 cc 49 2f 34 b9 a5 34 b5 82 e9 29 b6
       5.247998e-07 1.6324992e-07 -6.7296384e-07 -2.5318882e-06
0003b0 bf aa 44 b6 46 8f 32 36 36 0b 02 36 c5 a7 0b b6
       -2.9305663e-06 2.6607463e-06 1.9378035e-06 -2.0810269e-06
0003c0 21 c9 38 36 06 04 08 36 77 7e db b5 73 b2 a8 b5
       2.753521e-06 2.0267921e-06 -1.6353578e-06 -1.2568911e-06
0003d0 39 2b 27 b4 6a 99 88 33 e0 1a 38 35 c0 9c e8 b5
       -1.5568811e-07 6.3608994e-08 6.858445e-07 -1.7330967e-06
0003e0 e5 80 16 36 a3 53 02 36 d0 57 bd 35 78 6a 29 34
       2.2426768e-06 1.9420193e-06 1.4107154e-06 1.5778085e-07
0003f0 ad 97 5b b5 7d b5 20 35 3c e5 1b b6 d4 c5 1a b6
       -8.1804575e-07 5.9868745e-07 -2.3230232e-06 -2.306294e-06

fc2.bias f4 [128]
000000 7a 6f 07 b6 cc 07 fb 35 ef c9 05 42 7d 0c c2 35
       -2.0181456e-06 1.8703226e-06 33.4472 1.4457761e-06
000010 bb ae fa b5 ee c9 05 42 a6 3b ec 35 ee c9 05 42
       -1.8677305e-06 33.447197 1.760073e-06 33.447197
000020 80 e8 16 b4 f9 74 4d 36 ee c9 05 42 3d 3f 34 b6
       -1.4054422e-07 3.0615467e-06 33.447197 -2.68589e-06
000030 75 ca 6d 36 1e 85 e0 35 50 d2 db b5 d3 74 66 32
       3.5433598e-06 1.6728043e-06 -1.637798e-06 1.3414325e-08
000040 cc 5c 14 36 99 77 2a b6 ad 61 1c 36 82 98 1e b5
       2.2107733e-06 -2.540159e-06 2.3302666e-06 -5.9081515e-07
000050 c2 19 c6 b5 f4 c9 05 42 6b c2 de 35 cc 5b 08 36
       -1.4759646e-06 33.44722 1.6596872e-06 2.0319012e-06
000060 f5 67 c2 b4 ed 7b bb 35 f5 c9 05 42 df e8 24 b6
       -3.6210955e-07 1.3968653e-06 33.447224 -2.4573453e-06
000070 8d 7c 39 35 f4 c9 05 42 4a 9e f1 b5 99 1b 8f b4
       6.9099116e-07 33.44722 -1.8001967e-06 -2.6655906e-07
000080 d0 59 16 b4 f3 0d 41 35 71 7e af 36 f4 c9 05 42
       -1.4002512e-07 7.19184e-07 5.230126e-06 33.44722
000090 3b a5 c0 35 c7 f6 89 35 46 ce b4 b5 98 b4 f1 b2
       1.4353203e-06 1.0279117e-06 -1.3471079e-06 -2.8138217e-08
0000a0 57 1f 92 36 a6 10 4c 35 76 0b 7c b2 f4 c9 05 42
       4.3547875e-06 7.602015e-07 -1.46709365e-08 33.44722
0000b0 4e 1f 5d b6 e1 7f ca b5 ee c9 05 42 f0 c9 05 42
       -3.2949788e-06 -1.508739e-06 33.447197 33.447205
0000c0 d1 18 40 35 26 0d 21 36 e5 f9 fa 33 19 b3 98 b5
       7.1561686e-07 2.3998523e-06 1.1686988e-07 -1.1377007e-06
0000d0 40 9b 1e 35 24 ea 36 35 8a 86 32 b6 f2 c9 05 42
       5.9085505e-07 6.8141003e-07 -2.660238e-06 33.447212
0000e0 cf 98 26 36 27 84 1b 36 48 74 0e b6 f4 c9 05 42
       2.4824874e-06 2.3173723e-06 -2.1227333e-06 33.44722
0000f0 44 12 90 b5 ef c9 05 42 20 74 fa 35 ef c9 05 42
       -1.0734152e-06 33.4472 1.8660248e-06 33.4472
000100 ee c9 05 42 e1 39 d5 b5 ef c9 05 42 12 54 00 b6
       33.447197 -1.5886582e-06 33.4472 -1.9122422e-06
000110 ee c9 05 42 ee c9 05 42 d6 c5 7d 35 79 48 1d b6
       33.447197 33.447197 9.4537734e-07 -2.3437008e-06
000120 ef c9 05 42 ee c9 05 42 ef ad 9e b5 f0 c9 05 42
       33.4472 33.447197 -1.1822539e-06 33.447205
000130 ee c9 05 42 ee c9 05 42 ef c9 05 42 8b ff 10 b6
       33.447197 33.447197 33.4472 -2.1606418e-06
000140 71 ac 57 36 de 05 be b4 84 52 71 36 d5 a2 56 b5
       3.213787e-06 -3.5394527e-07 3.595983e-06 -7.9958164e-07
000150 b6 93 c9 b4 23 54 a1 b5 6b 6b 70 36 ee c9 05 42
       -3.754664e-07 -1.2019922e-06 3.5825312e-06 33.447197
000160 f4 c9 05 42 ec 54 88 34 ee c9 05 42 f8 d9 2c b6
       33.44722 2.5393763e-07 33.447197 -2.5756872e-06
000170 64 04 91 36 ef c9 05 42 ce 3b 03 b5 8b af ad 35
       4.321848e-06 33.4472 -4.888833e-07 1.2940594e-06
000180 41 ff 34 b6 ee c9 05 42 f3 c9 05 42 f4 c9 05 42
       -2.6970667e-06 33.447197 33.447216 33.44722
000190 bc 51 08 36 af 30 92 b5 9c 24 07 35 87 a7 33 34
       2.0313155e-06 -1.0892016e-06 5.034469e-07 1.673162e-07
0001a0 5d 78 06 36 ba df 93 b5 23 7f 35 36 b0 df d4 35
       2.0037617e-06 -1.1017466e-06 2.7045105e-06 1.5860332e-06
0001b0 58 fc 85 35 ec d9 5a 36 f0 c9 05 42 ee c9 05 42
       9.982714e-07 3.2611379e-06 33.447205 33.447197
0001c0 ee c9 05 42 28 f7 09 b6 ee c9 05 42 34 59 ec b5
       33.447197 -2.0558455e-06 33.447197 -1.7609332e-06
0001d0 f7 40 86 36 b9 72 83 35 80 7b 5a b3 0c 7b c3 35
       4.001074e-06 9.793649e-07 -5.0869403e-08 1.4564444e-06
0001e0 c7 ab 95 b4 92 91 27 36 e1 53 c2 35 f2 c9 05 42
       -2.7878397e-07 2.4969672e-06 1.4478538e-06 33.447212
0001f0 32 86 44 36 c0 3a b9 b5 97 60 af 36 bb 23 03 b6
       2.9284388e-06 -1.3800673e-06 5.226651e-06 -1.954132e-06

fc3.weight f4 [4, 128]
000000 53 49 42 b6 07 00 a4 35 b9 31 24 41 ef 77 e6 35
       -2.8950933e-06 1.221896e-06 10.262139 1.7171241e-06
000010 28 67 1f 34 b2 31 24 41 01 49 b8 35 b0 31 24 41
       1.4845557e-07 10.262133 1.3730315e-06 10.262131
000020 7e de 0b 35 b7 82 85 2f b1 31 24 41 4a 7c dc b4
       5.2105304e-07 2.4285438e-10 10.262132 -4.1068625e-07
000030 e0 2c 91 36 31 d6 c9 b3 e1 34 79 b6 42 a0 92 36
       4.326561e-06 -9.398753e-08 -3.713467e-06 4.3697955e-06
000040 ee 86 51 34 8d 09 d1 b5 5d 54 6d b5 6b 0c c9 35
       1.9513729e-07 -1.5574493e-06 -8.8412145e-07 1.4979281e-06
000050 6c 89 00 b5 bd 31 24 41 a9 3f 93 b5 a1 31 9a b5
       -4.788369e-07 10.262143 -1.0970881e-06 -1.1488338e-06
000060 50 f2 68 b5 88 51 5b 34 b6 31 24 41 94 ed 09 b5
       -8.6779346e-07 2.0425625e-07 10.262136 -5.13822e-07
000070 be 04 93 b6 b6 31 24 41 9a 71 c7 35 44 22 c8 35
       -4.3814935e-06 10.262136 1.4859718e-06 1.4911134e-06
000080 f1 17 1d b5 3d 52 c5 35 8b b4 8e 34 b7 31 24 41
       -5.8521897e-07 1.4701578e-06 2.6580923e-07 10.262137
000090 18 dd 70 35 5f 8c 9e b6 d5 2d 69 34 36 69 0a 34
       8.97287e-07 -4.7251083e-06 2.171649e-07 1.2890527e-07
0000a0 e7 92 74 b6 43 76 99 b6 af a3 4f 36 b5 31 24 41
       -3.6444342e-06 -4.573523e-06 3.094068e-06 10.2621355
0000b0 c2 49 06 35 19 81 09 b6 b1 31 24 41 b6 31 24 41
       5.002622e-07 -2.0489736e-06 10.262132 10.262136
0000c0 d3 9b 0b 36 7f e3 f2 b5 9d 6d 89 36 1f 2e dc 34
       2.0803316e-06 -1.8096615e-06 4.095679e-06 4.101175e-07
0000d0 d4 f1 84 36 54 1d 1d 35 d0 d2 d6 b5 b6 31 24 41
       3.962059e-06 5.8529736e-07 -1.6005597e-06 10.262136
0000e0 08 65 81 35 91 43 b0 b4 c3 b8 e9 b5 b6 31 24 41
       9.640653e-07 -3.2831716e-07 -1.7413626e-06 10.262136
0000f0 3c be bf b6 ba 31 24 41 37 1d 2c 35 ba 31 24 41
       -5.7143898e-06 10.26214 6.4117506e-07 10.26214
000100 b4 31 24 41 68 89 e1 b5 b6 31 24 41 46 f6 93 35
       10.262135 -1.6803797e-06 10.262136 1.1024028e-06
000110 b5 31 24 41 b4 31 24 41 38 6b 28 35 d5 42 0f b6
       10.2621355 10.262135 6.27409e-07 -2.1347562e-06
000120 b3 31 24 41 b6 31 24 41 4a 26 00 b6 bd 31 24 41
       10.262134 10.262136 -1.9095773e-06 10.262143
000130 b1 31 24 41 b2 31 24 41 b5 31 24 41 7a 45 80 33
       10.262132 10.262133 10.2621355 5.973102e-08
000140 db 44 6d b5 e5 3b 75 b6 e9 bc ce b5 db 00 08 b6
       -8.838958e-07 -3.6542708e-06 -1.5403176e-06 -2.0266077e-06
000150 db 7a b4 35 75 91 c4 35 3d 93 35 36 b1 31 24 41
       1.3446801e-06 1.4645472e-06 2.7056806e-06 10.262132
000160 b6 31 24 41 9a ff 8e b6 b1 31 24 41 75 aa b0 b5
       10.262136 -4.2616857e-06 10.262132 -1.3162631e-06
000170 65 39 8f 36 b5 31 24 41 a7 52 4a 35 85 1c 03 34
       4.2684137e-06 10.2621355 7.537114e-07 1.2210701e-07
000180 23 a2 d0 b5 b5 31 24 41 b6 31 24 41 b6 31 24 41
       -1.5544396e-06 10.2621355 10.262136 10.262136
000190 0f 0f 4f b2 cd 4c 04 b6 5f 8c 02 b6 c7 9e 88 b4
       -1.205241e-08 -1.9714237e-06 -1.9453216e-06 -2.54475e-07
0001a0 7a 99 da 35 df 8e 01 36 bf 52 73 b6 28 21 10 b4
       1.6286933e-06 1.930566e-06 -3.6257986e-06 -1.3423107e-07
0001b0 1c 7a a2 35 b7 39 bd b5 b5 31 24 41 b0 31 24 41
       1.2105479e-06 -1.4098395e-06 10.2621355 10.262131
0001c0 ad 31 24 41 3c 31 99 b5 b1 31 24 41 a0 f0 4b b6
       10.262128 -1.1413717e-06 10.262132 -3.038942e-06
0001d0 23 fd 5e 36 01 ff b0 b5 a1 ed 63 b1 0c 40 49 b6
       3.3227923e-06 -1.3187238e-06 -3.3167924e-09 -2.9988614e-06
0001e0 a5 94 f9 b5 79 01 d0 34 a2 f1 17 35 b6 31 24 41
       -1.8595207e-06 3.874409e-07 5.6603506e-07 10.262136
0001f0 a9 d6 25 36 f3 4e b2 34 e3 b0 a4 35 f4 26 c0 b6
       2.4711865e-06 3.3212527e-07 1.2270433e-06 -5.7265806e-06
000200 31 4e fe b5 f7 87 87 b5 92 28 ca 40 be 1e fe 35
       -1.8947231e-06 -1.0097855e-06 6.3174524 1.8933422e-06
000210 08 e1 b4 b6 8d 28 ca 40 a0 8c bc b5 8c 28 ca 40
       -5.390615e-06 6.31745 -1.4048019e-06 6.3174496
000220 1e a9 3e 34 07 c4 a0 b6 9f 28 ca 40 e5 0d 26 b6
       1.7756653e-07 -4.791192e-06 6.3174586 -2.4744015e-06
000230 6d 8d 25 b6 85 a1 b4 b4 7d 37 67 b6 ed 87 9c b5
       -2.4669237e-06 -3.3645134e-07 -3.445398e-06 -1.1662465e-06
000240 b3 e5 de b5 34 86 13 35 1c b7 f9 35 d2 37 27 35
       -1.660714e-06 5.495706e-07 1.8605238e-06 6.229358e-07
000250 97 7f 0b b6 97 28 ca 40 4d ba 02 b6 50 55 0c 36
       -2.078688e-06 6.317455 -1.947995e-06 2.0911284e-06
000260 7c 8b fc 35 af 26 45 b6 a2 28 ca 40 da 99 90 35
       1.8816058e-06 -2.9377804e-06 6.31746 1.0773613e-06
000270 3c 63 08 36 98 28 ca 40 a6 70 8e 35 05 4a 7e 34
       2.0323341e-06 6.3174553 1.061261e-06 2.3682522e-07
000280 73 78 0b 36 b7 aa 5b 35 0f 33 a1 b5 95 28 ca 40
       2.0782725e-06 8.183228e-07 -1.2010295e-06 6.317454
000290 f6 a8 93 34 09 d4 0d b6 09 70 3d b5 ed 7d cc 34
       2.750382e-07 -2.1134058e-06 -7.057102e-07 3.8089584e-07
0002a0 22 19 96 b5 09 a7 2a b6 7d 59 26 b6 9c 28 ca 40
       -1.1183186e-06 -2.5429201e-06 -2.4788017e-06 6.317457
0002b0 34 0f 7d b5 64 71 62 b5 88 28 ca 40 98 28 ca 40
       -9.427197e-07 -8.4356566e-07 6.3174477 6.3174553
0002c0 ca 96 02 36 8f bf 66 35 88 db 99 34 b3 03 28 32
       1.945928e-06 8.596043e-07 2.86582e-07 9.779728e-09
0002d0 a2 d4 88 b4 ac 4e 90 b5 58 23 17 b4 97 28 ca 40
       -2.5486685e-07 -1.0751733e-06 -1.4075829e-07 6.317455
0002e0 19 2a e1 34 5c b0 90 b5 2e 1a 3f 35 98 28 ca 40
       4.1940146e-07 -1.0780163e-06 7.119114e-07 6.3174553
0002f0 22 d9 72 34 92 28 ca 40 bc 29 9a 35 96 28 ca 40
       2.2616999e-07 6.3174524 1.148604e-06 6.3174543
000300 88 28 ca 40 7c 87 4d 35 92 28 ca 40 81 ad a8 35
       6.3174477 7.6565607e-07 6.3174524 1.2567472e-06
000310 87 28 ca 40 8b 28 ca 40 3c a6 d4 b5 50 7c ed 36
       6.317447 6.317449 -1.5843611e-06 7.0776223e-06
000320 88 28 ca 40 8b 28 ca 40 84 6a 6d b5 88 28 ca 40
       6.3174477 6.317449 -8.844438e-07 6.3174477
000330 8c 28 ca 40 8b 28 ca 40 88 28 ca 40 64 c0 97 35
       6.3174496 6.317449 6.3174477 1.130637e-06
000340 e4 c0 45 b6 81 26 d1 36 e4 14 fb b2 cf c8 2f b6
       -2.9467565e-06 6.233168e-06 -2.9229746e-08 -2.6193918e-06
000350 52 75 03 b6 9b d7 88 b5 f2 08 18 b5 8d 28 ca 40
       -1.958881e-06 -1.0195539e-06 -5.663743e-07 6.31745
000360 98 28 ca 40 ff b9 b2 b5 8c 28 ca 40 e4 75 fb b5
       6.3174553 -1.3316165e-06 6.3174496 -1.8735268e-06
000370 2d 2d ca b5 94 28 ca 40 e7 09 36 b6 67 92 03 36
       -1.5063321e-06 6.3174534 -2.7125877e-06 1.9605739e-06
000380 8b 06 88 34 88 28 ca 40 96 28 ca 40 99 28 ca 40
       2.5336735e-07 6.3174477 6.3174543 6.317456
000390 1f db e3 34 dd ac 7a b3 55 87 d7 36 5a f3 4b 35
       4.2441476e-07 -5.836488e-08 6.423254e-06 7.5977516e-07
0003a0 30 79 99 b5 b2 62 75 33 6b c9 24 b6 17 e0 14 b6
       -1.1434659e-06 5.713327e-08 -2.4555145e-06 -2.2184156e-06
0003b0 f3 11 97 b5 92 40 d4 34 96 28 ca 40 8b 28 ca 40
       -1.1255601e-06 3.9535058e-07 6.3174543 6.317449
0003c0 8c 28 ca 40 1a aa 9a b5 8c 28 ca 40 0e dc cc b5
       6.3174496 -1.15234e-06 6.3174496 -1.5263229e-06
0003d0 84 ed 70 b6 b8 88 9a b6 f4 3f 5b b5 5f d8 09 b6
       -3.590104e-06 -4.605474e-06 -8.167692e-07 -2.0540535e-06
0003e0 94 51 9d b5 75 44 60 b6 9a ad 9a b6 8e 28 ca 40
       -1.1721154e-06 -3.3418448e-06 -4.6097675e-06 6.3174505
0003f0 c6 ab 63 35 57 1c c7 33 4d 45 1c b6 56 70 3e b6
       8.4814053e-07 9.2718146e-08 -2.328615e-06 -2.8377594e-06

fc3.bias f4 [4]
000000 b6 31 24 41 93 28 ca 40 80 e4 24 41 ca fa d1 40
       10.262136 6.317453 10.305786 6.561864
